models/add_to_target_acc982.pt (torch, 639255 bytes, 54 tensors)

embed.W_E f4 [32, 64]
0	0x3c7eee82	0.015559794
1	0x3a1afdbd	0.0005912444
2	0xbb520d97	-0.0032051557
3	0xbbeee247	-0.007290158
4	0x3b31dfa5	0.002714136
5	0x3a816f16	0.0009875025
6	0x3a8f8b32	0.0010951518
7	0x3a3cf781	0.0007208512
8	0x3a2fa42c	0.0006700184
9	0x3bac081f	0.0052499915
10	0x3d19715a	0.037461616
11	0x3a39d20c	0.00070884894
12	0x3d1233e7	0.03569403
13	0xb8a92b8d	-8.06666e-05
14	0xbab85f13	-0.001406642
15	0xbb23f0de	-0.0025015394
16	0x3a412ce9	0.0007369058
17	0x3862c4f9	5.4066044e-05
18	0x3c49df92	0.01232137
19	0x3a594e29	0.000828954
20	0x3a665381	0.0008786247
21	0xb7999736	-1.8309434e-05
22	0x3a924e41	0.0011162237
23	0x3a1adc5d	0.00059074705
24	0x3c21e917	0.009882233
25	0x3a24028c	0.0006256483
26	0xbc031ea8	-0.0080029145
27	0x3b99f92c	0.004698893
28	0x398f64c9	0.00027350176
29	0xba5938fa	-0.0008286383
30	0x3af4370a	0.0018632126
31	0x3c4e8eb1	0.0126072625
32	0xbdba6078	-0.09100431
33	0x3a7e6991	0.00097050617
34	0x3970d880	0.00022968836
35	0xbbaa8102	-0.005203367
36	0x3a1fdcf6	0.00060982944
37	0x3a8205b9	0.0009919918
38	0x3a5c57f4	0.000840544
39	0x3a40aa47	0.0007349592
40	0xbcfc8b8e	-0.030828264
41	0xbd776ff8	-0.060409516
42	0x3a3d89ec	0.000723033
43	0x3a7310f8	0.0009272243
44	0xb85f1679	-5.3188272e-05
45	0x3a651a74	0.00087395986
46	0x3a57855b	0.00082214706
47	0x3a620ac2	0.0008622819
48	0x3a6fd38e	0.00091486506
49	0x3a5af1cf	0.00083520723
50	0x3a61a43e	0.0008607543
51	0x3ba456d1	0.005015232
52	0x3a493643	0.0007675627
53	0x3a71a737	0.00092183374
54	0xb5c209ad	-1.4456942e-06
55	0x3a2a1986	0.00064887886
56	0x3a6668e3	0.0008789433
57	0x3cca9eeb	0.024733981
58	0x3a9b7b70	0.0011862349
59	0x3a0890f8	0.00052095903
60	0x3abb86f9	0.0014307193
61	0x3a676262	0.0008826611
62	0x3a8fff8e	0.0010986195
63	0x3a6fdafd	0.0009149758
64	0x3d63adb2	0.05558557
65	0x3b96f9ac	0.0046074
66	0xb685f4a0	-3.992187e-06
67	0xbb67f75b	-0.0035395238
68	0x3ba6e536	0.005093242
69	0x3b884602	0.004158736
70	0xbccbe8d9	-0.024891304
71	0x3b50938b	0.0031826224
72	0x3bcd978a	0.0062741684
73	0x3b3b528b	0.0028583135
74	0x3d455a22	0.04818166
75	0x3b664878	0.003513841
76	0xbc0e47d2	-0.0086841155
77	0xbcc6738e	-0.024225023
78	0x3a87cfd5	0.0010361621
79	0x3ab322d9	0.0013667002
80	0x3b83363b	0.0040042675
81	0x3a9e5164	0.00120787
82	0xbc6e1398	-0.014531039
83	0x3b880c72	0.004151874
84	0x3b61f626	0.0034478991
85	0x3b5a6c84	0.003332884
86	0x3b5a1153	0.0033274486
87	0x3b8cb466	0.004293966
88	0x3cd8688f	0.026417045
89	0x3b6764f1	0.0035307969
90	0x3cab332b	0.020898422
91	0x3aac2508	0.0013133595
92	0xba3d532a	-0.000722217
93	0x3ae0ff44	0.0017165919
94	0x3ba2652e	0.004955909
95	0x3c507b07	0.0127246445
96	0xbe05538e	-0.13020155
97	0x3b8a2602	0.0042159567
98	0xbb630f0d	-0.0034646422
99	0xbc87ce67	-0.016577912
100	0x3b840c09	0.004029755
101	0x3b999078	0.0046864115
102	0x3b799a55	0.0038086374
103	0x3b6b65bf	0.00359188
104	0xb9254438	-0.0001576104
105	0xbdd86e58	-0.105679214
106	0x3b8a3144	0.0042172987
107	0x3b87bf92	0.00414271
108	0x3d1b7ed8	0.037962765
109	0x3b6e8400	0.0036394596
110	0x3b9258dc	0.0044661593
111	0x3b8cda3b	0.004298476
112	0x3b642fb4	0.0034818472
113	0x3b70d39b	0.003674722
114	0x3b6485b6	0.0034869737
115	0x3c24e88c	0.010065209
116	0x3b7ed7a7	0.0038885863
117	0x3b734a03	0.0037122972
118	0x3b3457ec	0.0027518226
119	0x3b6e61b8	0.0036374163
120	0x3b8a26c9	0.0042160493
121	0x3d86825f	0.06567835
122	0x3ba39df6	0.0049931956
123	0x3b7fbee9	0.0039023703
124	0x3b5815ba	0.0032971934
125	0x3b74b9ea	0.0037342259
126	0x3b9615d9	0.004580241
127	0x3b809573	0.0039240657
128	0x3da2e3b1	0.07953585
129	0xbb2a4954	-0.0025983648
130	0xbc139a58	-0.009008966
131	0xbc6c4551	-0.014420823
132	0x3a202d1d	0.0006110238
133	0xbb01d114	-0.0019808458
134	0x3c828c6f	0.015936105
135	0xbaf56a96	-0.0018723782
136	0x3bb702e8	0.0055850632
137	0xb9b14b1a	-0.00033816026
138	0xbd72c63c	-0.059271082
139	0xbaf162b1	-0.0018416253
140	0x3d6247aa	0.055244125
141	0x3d933c14	0.07189193
142	0xbbe7b009	-0.0070705456
143	0xbc04322a	-0.008068601
144	0xbb02c34d	-0.0019952834
145	0xbb88ad72	-0.004171067
146	0x3d4ffd39	0.0507786
147	0xba8d64f1	-0.0010787529
148	0xbb127dd4	-0.0022352831
149	0xbb9fa84d	-0.004872358
150	0x393bab77	0.00017897585
151	0xbb2d32b8	-0.0026427936
152	0x3b6ed5c9	0.0036443344
153	0xbb24b9cd	-0.002513516
154	0xbc46bd6a	-0.012130121
155	0x3b6584d6	0.0035021803
156	0xbc8f9e93	-0.017531669
157	0xbbe28018	-0.0069122426
158	0x39347ae0	0.00017211912
159	0x3c84da21	0.016217293
160	0xbdc2b372	-0.09506883
161	0xbac4b320	-0.0015006997
162	0xbc94dcfc	-0.01817178
163	0xbb9d3f96	-0.00479884
164	0xbb202f00	-0.0024442077
165	0xbb05ed52	-0.0020435643
166	0xba3f9520	-0.0007308293
167	0xbab41888	-0.0013740221
168	0xbc70eb31	-0.0147045115
169	0x3b3b2f68	0.0028562192
170	0xbafb5e11	-0.0019177814
171	0xba3dedbb	-0.00072452024
172	0xbccffba7	-0.025388552
173	0xba1baa0d	-0.00059381203
174	0xba9bd72a	-0.0011889685
175	0xbab6b97f	-0.001394078
176	0xba316c77	-0.00067681767
177	0xbaf28a34	-0.0018504323
178	0xbb1648d7	-0.00229316
179	0xbc12f76f	-0.008970126
180	0xbaa7b6e4	-0.0012795595
181	0xbacea69d	-0.0015766207
182	0xbb9a21c3	-0.0047037317
183	0xbb1d45eb	-0.0023997973
184	0xbaf82ab7	-0.0018933628
185	0xbdb945ba	-0.090465024
186	0xbcc2ac03	-0.023763662
187	0xbb2b8c59	-0.0026176183
188	0xb9529e81	-0.00020086208
189	0xbaabcfe1	-0.0013108217
190	0xbad95e3d	-0.0016583871
191	0xba97dba6	-0.0011585846
192	0xbc752bbe	-0.014964042
193	0x3aaea9a6	0.0013325706
194	0xbc5467e2	-0.012964221
195	0xbc930b83	-0.017949825
196	0x3b35f76a	0.0027765878
197	0x3b03294d	0.002001363
198	0x3c3f21c5	0.011665766
199	0xbb2d9a9e	-0.0026489864
200	0xbc99b0ca	-0.018761057
201	0x3d294b5b	0.04133163
202	0x3c9ffac3	0.019528752
203	0xba72e3f1	-0.00092655333
204	0x3dcb5f85	0.09930328
205	0xbb2bb388	-0.0026199538
206	0xbb819b25	-0.0039552622
207	0xbbec0891	-0.0072031696
208	0xbabd42f1	-0.0014439506
209	0xb9b20911	-0.0003395756
210	0xbcad3615	-0.021143952
211	0xba8a402a	-0.0010547687
212	0x3baa300b	0.0051937154
213	0xbac2df29	-0.0014867532
214	0xba99d133	-0.001173532
215	0x3a9b0fde	0.001183029
216	0x3a1fa511	0.00060899655
217	0x3abaf057	0.0014262301
218	0xbcfb7029	-0.03069313
219	0x3d27a2ee	0.040926866
220	0x3cb91b00	0.022595882
221	0xbb01c483	-0.0019800968
222	0x3b9f8be7	0.0048689726
223	0x3ccb402d	0.024810875
224	0xbbeca63c	-0.007221965
225	0xba2c70ad	-0.00065780693
226	0x3cea72c4	0.028619178
227	0xbcc0d923	-0.023541039
228	0xb93c93f7	-0.00017984198
229	0xba6474e4	-0.0008714928
230	0xbb089c5e	-0.0020845155
231	0xb994290e	-0.00028259348
232	0xbd350c79	-0.044201348
233	0xbd1297ff	-0.035789486
234	0xbaa725ac	-0.0012752316
235	0xba86bdab	-0.0010279914
236	0xbd8219e8	-0.063525975
237	0xbb01e010	-0.001981739
238	0xbadfba22	-0.0017069022
239	0x3b2100fa	0.0024567232
240	0xbb2ce0d8	-0.0026379135
241	0xb9033cfc	-0.00012515852
242	0x3c020cfe	0.007937668
243	0x3cae8249	0.02130236
244	0xbace92f3	-0.0015760347
245	0xbae1f6ac	-0.0017239652
246	0xbaec38d9	-0.0018022313
247	0xba209496	-0.00061256567
248	0xba330717	-0.00068293646
249	0xbcd3293e	-0.025776502
250	0x3ca1f685	0.01977087
251	0x3a7539c0	0.0009354614
252	0xbb07ed69	-0.0020740873
253	0xbae0066d	-0.0017091759
254	0x3ae56080	0.0017500073
255	0xbace8eb7	-0.0015759085

pos_embed.W_pos f4 [23, 64]
0	0xbc3812f3	-0.011234987
1	0xba0cd1da	-0.00053718465
2	0xba9798cc	-0.0011565923
3	0x3b0e16c1	0.0021681043
4	0xbace4ed4	-0.0015740045
5	0xb9e94a24	-0.00044496462
6	0xb9e49893	-0.00043601225
7	0xbac94ccf	-0.0015357974
8	0xbb0d36da	-0.0021547587
9	0xbb7a932b	-0.0038234692
10	0x3c2272ca	0.009915063
11	0xbaa0136b	-0.0012212818
12	0xba84d704	-0.001013488
13	0xbbee7bda	-0.007277948
14	0xb9e6c73f	-0.00044017468
15	0xb87d7d83	-6.0436792e-05
16	0x38021ebb	3.1023035e-05
17	0xb9b0a6eb	-0.000336937
18	0xbb8fc364	-0.004387306
19	0xba251e7a	-0.0006298792
20	0xbaf630f4	-0.00187829
21	0xba0f8c03	-0.00054758805
22	0xbad00623	-0.001587097
23	0xba1fe5b3	-0.00060995965
24	0x3a90a622	0.001103584
25	0xb9d444fa	-0.00040487183
26	0xbaef2582	-0.0018245431
27	0xb8cb3080	-9.688828e-05
28	0xba944406	-0.0011311776
29	0xb99a93f6	-0.00029483408
30	0xba18525d	-0.0005810613
31	0xbad31542	-0.0016104358
32	0x3d34c484	0.044132724
33	0xba16f780	-0.0005758926
34	0x3a76e541	0.0009418317
35	0xbac8acc0	-0.0015310273
36	0xba1c04a2	-0.0005951618
37	0xba1d4df4	-0.00060006906
38	0xba7a7075	-0.00095535006
39	0xbab4b0bb	-0.001378558
40	0xbd385e02	-0.045011528
41	0x3cc57a88	0.024106279
42	0xba8b377f	-0.0010621398
43	0xba59bf0e	-0.00083063624
44	0xbc2df072	-0.010616409
45	0xba8a2fee	-0.0010542849
46	0xba3cf27f	-0.00072077656
47	0xb9bb5d01	-0.00035736713
48	0xba88bf58	-0.0010433001
49	0x3a1fa970	0.0006090617
50	0xb957366c	-0.00020524272
51	0x3b41237a	0.0029470609
52	0xba9dfeff	-0.0012054144
53	0xbab19801	-0.0013549329
54	0xb99dda21	-0.00030107892
55	0xb9ef1a24	-0.0004560511
56	0xba3bfc37	-0.0007171067
57	0xbbf92832	-0.0076036686
58	0x3c56a3df	0.013100593
59	0xba507d76	-0.00079532654
60	0xbaade79c	-0.0013267878
61	0xba8cced3	-0.0010742791
62	0xba3423ed	-0.00068718084
63	0xba497aca	-0.00076858385
64	0xbd89ef46	-0.06735091
65	0xbc34a775	-0.011026253
66	0xbb31d2b6	-0.002713365
67	0x3bb9d662	0.0056713084
68	0xbc812842	-0.015766267
69	0xbc41a521	-0.011819155
70	0x3c48df15	0.012260218
71	0xbc3c777d	-0.011503098
72	0xbc6d0e5e	-0.014468757
73	0xbc6cc943	-0.014452281
74	0xbd243b25	-0.040095467
75	0xbc418110	-0.011810556
76	0xbd9e4e72	-0.07729806
77	0xbc328a4a	-0.0108972285
78	0xbbb98a05	-0.005662205
79	0xbb9b4eb0	-0.004739605
80	0xbc437e95	-0.011932035
81	0xbc163224	-0.009167228
82	0xbd1d7bc2	-0.038448103
83	0xbc48e84c	-0.012262415
84	0xbc3ab36b	-0.011395316
85	0xbc067ce3	-0.008208486
86	0xbc425266	-0.011860466
87	0xbc3610fd	-0.011112449
88	0xbcfdcb85	-0.030980835
89	0xbc35eeee	-0.011104329
90	0xbc3d6383	-0.01155937
91	0xbc8f5c13	-0.01749996
92	0xbbc425b4	-0.00598594
93	0xbbee5f9a	-0.00727458
94	0xbc735276	-0.014851203
95	0xbd0319a7	-0.032006886
96	0xbd8133d6	-0.06308715
97	0xbc465301	-0.012104751
98	0x3c167004	0.00918198
99	0x3c7069a2	0.014673622
100	0xbc39d1e2	-0.011341544
101	0xbc43bd1a	-0.011946941
102	0xbc49a103	-0.012306455
103	0xbc45ad56	-0.012065252
104	0x3e1028cd	0.14078064
105	0x3db74abe	0.08949803
106	0xbc4424e4	-0.011971686
107	0xbc412658	-0.011788927
108	0xbcb8767c	-0.022517435
109	0xbc480024	-0.012207065
110	0xbc45d83a	-0.012075478
111	0xbc4d84f1	-0.012543903
112	0xbc49e9db	-0.012323822
113	0xbc459c8b	-0.0120612485
114	0xbc3ba72c	-0.011453431
115	0xbc9446ba	-0.018100131
116	0xbc459ca9	-0.0120612765
117	0xbc38d501	-0.011281253
118	0xbc11cbce	-0.0088986885
119	0xbc3ad4ef	-0.011403306
120	0xbc3dc7ca	-0.011583278
121	0xbc3ef589	-0.01165522
122	0xbd6663f6	-0.056247674
123	0xbc30dc77	-0.01079475
124	0xbc49966b	-0.012303929
125	0xbc44d217	-0.01201298
126	0xbc43180f	-0.0119075915
127	0xbc38b9a4	-0.011274729
128	0x3a41116a	0.00073649606
129	0xba4cc424	-0.00078112097
130	0x3b430ec3	0.0029763437
131	0x3b2f42fa	0.0026742802
132	0xb9caba95	-0.00038667457
133	0xba36e488	-0.0006976803
134	0x3ba37bb8	0.0049891137
135	0xbb59aa4e	-0.0033213082
136	0xbae9ef07	-0.0017847725
137	0xbb19226e	-0.002336647
138	0x3c11f9be	0.008909641
139	0xbb283333	-0.0025665283
140	0x3b93b391	0.00450749
141	0x3a83c4c0	0.0010053143
142	0x3ac6e964	0.0015175757
143	0x3b15aa2e	0.002283703
144	0xba68cb94	-0.0008880433
145	0x3aed8b15	0.0018123115
146	0x3bcfe02d	0.0063438625
147	0xbb156d58	-0.002280077
148	0x39433395	0.00018615865
149	0x3a6f9c2f	0.00091403996
150	0xbb3800f7	-0.0028076747
151	0x3a598286	0.00082973426
152	0xb98bacf8	-0.00026641018
153	0xb9ec30f1	-0.00045049892
154	0xbae76bfd	-0.0017656084
155	0xba5fad33	-0.00085325836
156	0x3b31a6f4	0.0027107568
157	0x3af74478	0.001886501
158	0xb9f1568b	-0.00046031582
159	0xbb69c3f6	-0.003566978
160	0x3cc681ef	0.024231879
161	0xbadda41d	-0.0016909871
162	0x3b4332f1	0.0029785002
163	0x3b888f3c	0.0041674655
164	0xba0f4288	-0.0005464931
165	0xba1b98dc	-0.00059355586
166	0xbb2cb7ea	-0.0026354739
167	0xbb2acc6d	-0.0026061789
168	0xbd145b0d	-0.036219645
169	0xbc29ac3d	-0.010356006
170	0xbb156035	-0.002279294
171	0xbb1bbf40	-0.0023765117
172	0x3a61fa2a	0.0008620346
173	0xbb2ef513	-0.0026696369
174	0xbab3eabe	-0.0013726575
175	0x39bbdfd5	0.00035834187
176	0xbb424c89	-0.002964767
177	0xba38501e	-0.00070309814
178	0x39c7b86a	0.00038093637
179	0x3b2d80da	0.0026474507
180	0xbb23909c	-0.002495802
181	0xbb21aa91	-0.0024668316
182	0x3ab38313	0.0013695679
183	0xba8feeea	-0.0010981236
184	0xbaf09a0e	-0.0018356459
185	0x3c8dcda4	0.017309971
186	0x3c1ea15b	0.009682025
187	0xbad21253	-0.001602719
188	0xbb54a5ce	-0.003244746
189	0xbb1c0f25	-0.0023812738
190	0xba73aa86	-0.00092951243
191	0xbad2ae7f	-0.0016073732
192	0x3c5385d4	0.012910325
193	0x3ab30668	0.0013658525
194	0x3b7a88b4	0.0038228454
195	0x3bc9789d	0.0061484114
196	0x381edd69	3.787634e-05
197	0x3a8eedac	0.0010904572
198	0x3992cae5	0.00027998458
199	0xba37c099	-0.0007009595
200	0x3a35d566	0.0006936401
201	0xba8cb06e	-0.0010733732
202	0x3c21449d	0.009843019
203	0xba3cb159	-0.0007198058
204	0xba3c7fa3	-0.000719065
205	0x3a3be9fe	0.00071683514
206	0x3b8603de	0.0040898165
207	0x3b95241c	0.0045514237
208	0x3a96bda8	0.0011500614
209	0x3b183079	0.0023222251
210	0x3bf3b6ec	0.0074375775
211	0xb9cd8cfd	-0.0003920569
212	0x3a84827c	0.0010109688
213	0x3b374180	0.0027962625
214	0xba96561c	-0.0011469754
215	0x3acf0795	0.0015795106
216	0x3b2e3e81	0.0026587548
217	0x3ab79141	0.0014005081
218	0x3b125086	0.0022325828
219	0xbb087ebc	-0.0020827493
220	0x3b00817a	0.0019608424
221	0x3b60096b	0.00341853
222	0xb80071d6	-3.0623596e-05
223	0xbb93cd59	-0.0045105633
224	0x3c7a8a58	0.015291773
225	0x3a18c770	0.00058280583
226	0x3bb97371	0.0056595136
227	0x3c3c767c	0.011502858
228	0x3aba31d4	0.0014205524
229	0x3a8e6bfd	0.0010865923
230	0xb9bf03bc	-0.0003643314
231	0xba172cfd	-0.00057668966
232	0xbd16250d	-0.036656428
233	0xbc0bb512	-0.008527057
234	0x39a24277	0.00030948568
235	0xb91e565f	-0.0001510023
236	0x3bfaa540	0.007649094
237	0xba87ff95	-0.0010375852
238	0x3a2c9765	0.0006583839
239	0x3a0246c2	0.000496965
240	0xba7c16c6	-0.00096164306
241	0x3a26c699	0.0006361991
242	0x3a803cc9	0.000978374
243	0x39bee7cd	0.0003641233
244	0xb93b5f10	-0.00017869123
245	0xb9ed148a	-0.00045219465
246	0x3b43a933	0.002985549
247	0x3abfffcb	0.0014648376
248	0x399d8af0	0.0003004889
249	0x3ce01115	0.027351895
250	0x3aa17c3e	0.0012320352
251	0x3a340a7b	0.0006868017
252	0xba9dafc7	-0.0012030535
253	0xb9bbc614	-0.00035815
254	0x3a6afb79	0.0008963864
255	0x3a21be40	0.0006170012

blocks.0.ln1.w f4 [64]
0	0x3ea173cb	0.31533656
1	0x3abc9e0d	0.0014390365
2	0x3d04b624	0.032400265
3	0x3d97208c	0.07379255
4	0x3c7f6a34	0.015589286
5	0x3c1ec164	0.009689663
6	0x3e79beb9	0.24389161
7	0x3a99380b	0.0011689676
8	0x3d66e030	0.056366146
9	0x3d92c41b	0.071663104
10	0x3e6a3154	0.2287038
11	0x3acc91f9	0.0015607468
12	0x3e9c8474	0.30569804
13	0x3e7426d0	0.23842931
14	0x3c0d9e56	0.008643707
15	0x3d335c6c	0.043789312
16	0x3a074439	0.0005160007
17	0x3d0cdbb9	0.03438923
18	0x3e97121e	0.2950601
19	0x3a015ecf	0.0004935087
20	0x3c1a751d	0.009427336
21	0x3c3035d7	0.010755024
22	0x39da8778	0.00041681132
23	0x3acb3f71	0.0015506578
24	0x3e32e582	0.17470363
25	0x3bfb4830	0.0076685175
26	0x3e7e9743	0.2486239
27	0x3dc15b7f	0.094412796
28	0x3d8392fe	0.06424521
29	0x3d3bf2b5	0.04588576
30	0x3bfdb1d6	0.007742147
31	0x3decd094	0.115632206
32	0x3f47b3ec	0.78008914
33	0x39b5d0df	0.0003467863
34	0x3e641280	0.22272682
35	0x3e766820	0.24063158
36	0x3b85eb32	0.0040868754
37	0x3a315884	0.0006765204
38	0x3be609c3	0.0070202067
39	0x39fdfc8e	0.00048444088
40	0x3f33fde0	0.7030926
41	0x3ee05d99	0.4382141
42	0x3a6d039e	0.00090413715
43	0x39ff543b	0.00048700147
44	0x3e98efbb	0.298704
45	0x3a0f831f	0.00054745557
46	0x3a0c711c	0.0005357431
47	0x3c0047d0	0.007829621
48	0x3a3a0a39	0.000709686
49	0x3a820001	0.0009918214
50	0x3c983aca	0.01858272
51	0x3df13b1e	0.11778854
52	0x3a15599d	0.00056972523
53	0x3a48def1	0.00076626154
54	0x3c0f16c0	0.008733451
55	0x3a17c55a	0.00057896005
56	0x3a169336	0.0005743982
57	0x3ea81df6	0.32835358
58	0x3ec3d27c	0.38246524
59	0x3a0a4447	0.00052744563
60	0x39ca03aa	0.00038531172
61	0x39f6c53e	0.00047067733
62	0x3b45c8ff	0.0030179617
63	0x3a0b5efb	0.00053165824

blocks.0.ln1.b f4 [64]
0	0xbba29b0a	-0.0049623298
1	0x371ae3d6	9.2321625e-06
2	0x3c0f9ed4	0.008765895
3	0x3b148d29	0.0022667146
4	0xba8d17ae	-0.0010764503
5	0xb943a401	-0.00018657745
6	0x3c86eeb2	0.01647124
7	0x379e3614	1.886025e-05
8	0x3a9b3009	0.0011839877
9	0x3b1a2e6d	0.0023526207
10	0x3b0c92c0	0.0021449775
11	0x37a7a215	1.9983427e-05
12	0xbb07c528	-0.002071688
13	0xbc3433f5	-0.010998716
14	0x3aac2ee6	0.0013136535
15	0x3abd1d47	0.0014428281
16	0xb6cd7299	-6.122817e-06
17	0x3a80db3a	0.000983096
18	0xbb797c2a	-0.0038068392
19	0x3643b39a	2.9161806e-06
20	0xbb2fe533	-0.0026839494
21	0xb9d41430	-0.00040450832
22	0x36cdc264	6.132106e-06
23	0x38213bdf	3.844115e-05
24	0xbb8f1552	-0.0043665553
25	0xb99e5348	-0.00030198158
26	0xbd00b60a	-0.031423606
27	0xbb7c581c	-0.0038504666
28	0xbb541972	-0.00323638
29	0x3a9d77ec	0.0012013889
30	0xba21c99a	-0.00061717036
31	0xbb3750c2	-0.002797172
32	0xbd48c3a5	-0.049014706
33	0xb5c00f47	-1.4309561e-06
34	0x3b442df3	0.0029934614
35	0xbc74faa5	-0.014952336
36	0x39a247b5	0.00030952474
37	0xb788a3b4	-1.6288694e-05
38	0xb947e696	-0.00019064019
39	0x368ce02e	4.198423e-06
40	0xbd78c718	-0.060736746
41	0x3c068404	0.008210186
42	0x372a60b4	1.0155305e-05
43	0x361db42d	2.34997e-06
44	0x3c2096ff	0.009801625
45	0xb76d6a59	-1.4151062e-05
46	0xb6c01a6f	-5.725123e-06
47	0xba5badb3	-0.000838007
48	0x37fdab44	3.0239702e-05
49	0x38621019	5.389759e-05
50	0xbafe7b7b	-0.0019415462
51	0xbc2a0ef3	-0.010379541
52	0xb6f551be	-7.311085e-06
53	0x3827c4ff	3.999937e-05
54	0xba8768ce	-0.0010330917
55	0xb85a093f	-5.198386e-05
56	0x36dc0627	6.557227e-06
57	0x3bc4fc20	0.006011501
58	0xbc0fe8f7	-0.0087835705
59	0x3664db62	3.4102345e-06
60	0x37177d8d	9.029533e-06
61	0xb4fd038b	-4.71275e-07
62	0xb93c93a8	-0.00017984083
63	0x351dfcc5	5.8854886e-07

blocks.0.ln2.w f4 [64]
0	0x39955710	0.0002848436
1	0x3addd5c8	0.0016924674
2	0x3a584659	0.0008250229
3	0x39900554	0.0002746979
4	0x39a01141	0.00030530433
5	0x39980626	0.0002899628
6	0x39638331	0.0002169728
7	0x3d1f0ce8	0.038830668
8	0x39b18637	0.0003386007
9	0x3be2be9d	0.0069196955
10	0x399a613b	0.0002944561
11	0x3aab4472	0.0013066663
12	0x3b6822a2	0.0035421033
13	0x3a9083b7	0.0011025582
14	0x3a897710	0.0010487754
15	0x398aad2d	0.00026450437
16	0x39c08c0f	0.00036725446
17	0x3a1cd463	0.0005982576
18	0x39ddc84d	0.0004230164
19	0x3a265f3b	0.0006346588
20	0x398979eb	0.00026221512
21	0x39a7de62	0.0003201841
22	0x39b34a6a	0.00034196983
23	0x3a5928e1	0.00082839845
24	0x3dbb23e0	0.09137702
25	0x3ab7a1c7	0.0014010005
26	0x3b37e788	0.0028061587
27	0x39757b5c	0.00023410976
28	0x3aa12cf5	0.0012296723
29	0x392b57af	0.00016340495
30	0x3a0cc916	0.00053705403
31	0x3c0ac68d	0.00847019
32	0x3d9df160	0.07712054
33	0x396bcd28	0.00022487773
34	0x3e56f2ce	0.2099106
35	0x3ea37162	0.31922442
36	0x3dafa91d	0.08577178
37	0x39a24388	0.00030949363
38	0x3ea86843	0.32892045
39	0x3bbb275e	0.00571148
40	0x3c725322	0.014790328
41	0x39f7ee29	0.00047288954
42	0x3af77e4e	0.0018882246
43	0x3c2691e2	0.010166617
44	0x3dad9622	0.08475901
45	0x39354c32	0.0001728989
46	0x399d9cbd	0.00030062153
47	0x395ebc98	0.00021241826
48	0x3e92a27c	0.2863959
49	0x3b5ccd52	0.0033691716
50	0x3d250d9c	0.040296182
51	0x39d5184c	0.00040644628
52	0x3e8a0702	0.26958472
53	0x39923b2d	0.0002789138
54	0x3bfdd311	0.0077461083
55	0x399e24ec	0.00030163617
56	0x3e8a6d71	0.27036622
57	0x3b04fa9a	0.0020290972
58	0x3a1e9efd	0.0006050913
59	0x39800132	0.00024414953
60	0x39959b0e	0.0002853502
61	0x398e0cff	0.00027094033
62	0x3b1ee5ee	0.0024245935
63	0x3a0fb1f4	0.0005481534

blocks.0.ln2.b f4 [64]
0	0xb5989d62	-1.1370687e-06
1	0xb80e018a	-3.385687e-05
2	0xb7fa9144	-2.9869967e-05
3	0x36b48be0	5.3807016e-06
4	0xb6f667cb	-7.3434544e-06
5	0xb71e18e1	-9.423326e-06
6	0xb6dd12ba	-6.5884933e-06
7	0xbb96c2df	-0.004600867
8	0xb7512ba7	-1.2467534e-05
9	0x3a155fcb	0.0005698173
10	0xb78968f4	-1.6380545e-05
11	0xb9020df2	-0.00012402961
12	0x3925e454	0.00015820685
13	0xb94da490	-0.00019611628
14	0xb7915e6a	-1.7329312e-05
15	0xb78570ec	-1.5907419e-05
16	0xb7d2f16b	-2.514637e-05
17	0xb7bdab95	-2.2610455e-05
18	0x37690c75	1.3890783e-05
19	0xb6bf6227	-5.70367e-06
20	0x370db4a4	8.446314e-06
21	0xb7901880	-1.7177546e-05
22	0xb7708e65	-1.4338269e-05
23	0xb79d8f1e	-1.8782503e-05
24	0xbabbf874	-0.0014341013
25	0xb81b380c	-3.7007077e-05
26	0xba8433c8	-0.0010086233
27	0xb78e04cd	-1.6929955e-05
28	0xb82131cb	-3.8431765e-05
29	0xb739dc37	-1.1078132e-05
30	0xb803d262	-3.1428768e-05
31	0xbaeb1d5c	-0.0017937827
32	0x3b373b3e	0.0027958895
33	0xb6a0a5a3	-4.7876542e-06
34	0xbbcd60a3	-0.0062676235
35	0x3c857c20	0.016294539
36	0xba877bf7	-0.0010336627
37	0xb664964a	-3.4062127e-06
38	0x3c46d554	0.012135822
39	0xba590c0b	-0.00082796876
40	0xba6edc3d	-0.00091117976
41	0xb8ae2ccc	-8.3053106e-05
42	0xb8ce6d19	-9.8431665e-05
43	0x37f94505	2.9715253e-05
44	0xbc6c703f	-0.014431058
45	0xb70eee22	-8.519304e-06
46	0xb63d2333	-2.8183683e-06
47	0xb7669010	-1.37426105e-05
48	0xbb5d71ce	-0.0033789757
49	0xb9a3b594	-0.0003122507
50	0xbb5ac47d	-0.0033381276
51	0xb6cae48e	-6.0466764e-06
52	0x3c37b15a	0.0112117175
53	0xb6f3049b	-7.2425005e-06
54	0xba815bda	-0.0009869293
55	0xb768f75a	-1.3885869e-05
56	0xbb800c0e	-0.003907687
57	0xb91df9cc	-0.00015065743
58	0xb80bb5b7	-3.3309418e-05
59	0xb62c113b	-2.5640027e-06
60	0xb7c53eca	-2.3513468e-05
61	0xb5806f62	-9.56916e-07
62	0xba12fa05	-0.0005606714
63	0xb81509ff	-3.5533678e-05

blocks.0.attn.W_Q f4 [2, 64, 32]
0	0x3ab0bdae	0.0013484263
1	0xba314680	-0.00067625195
2	0x3ad33bb4	0.0016115815
3	0xbb0dd0fb	-0.0021639455
4	0x3a3c0c06	0.00071734225
5	0x3a67912f	0.0008833585
6	0xba863a07	-0.0010240682
7	0xba6d2abb	-0.00090472
8	0xba15b8eb	-0.0005711454
9	0xba5d2e13	-0.00084373466
10	0x3a8a76ce	0.0010563971
11	0xac1e3919	-2.2484846e-12
12	0xb9280f58	-0.00016027445
13	0xbb0de999	-0.0021654128
14	0x3a8047ab	0.0009786984
15	0x28a9ec92	1.8865365e-14
16	0x2f5c6544	2.004486e-10
17	0x284432e7	1.0891223e-14
18	0xbafe512d	-0.0019402854
19	0xba86ab0d	-0.0010274366
20	0x3b3d520d	0.0028888017
21	0x386072a8	5.3512544e-05
22	0xbb01a825	-0.001978406
23	0x3acbd6c0	0.0015551671
24	0xba83832f	-0.0010033603
25	0xbaddfc0a	-0.0016936075
26	0x245f1708	4.8374925e-17
27	0xbaf09171	-0.0018353892
28	0xba3ecc6b	-0.00072783855
29	0xbabaa966	-0.0014241158
30	0x3af70714	0.0018846714
31	0x3b05bfb9	0.0020408465
32	0x36e5e070	6.85086e-06
33	0xb6577d2d	-3.2110358e-06
34	0x3715579d	8.901491e-06
35	0xb747ae38	-1.1901888e-05
36	0x36669175	3.4357338e-06
37	0x36798ff7	3.718769e-06
38	0xb6b917f0	-5.5162163e-06
39	0xb68ef140	-4.260015e-06
40	0xb61756fb	-2.2551383e-06
41	0xb671e099	-3.6042532e-06
42	0x36b0ebc7	5.272657e-06
43	0xa81a9468	-8.580898e-15
44	0xb537db72	-6.849215e-07
45	0xb75698b1	-1.2790945e-05
46	0x36a65b50	4.9578157e-06
47	0xa5e682a5	-3.9987168e-16
48	0xab4c21c8	-7.252224e-13
49	0xa58e9a80	-2.4737767e-16
50	0xb72eba49	-1.0414581e-05
51	0xb6acad74	-5.146192e-06
52	0x377809b5	1.4784212e-05
53	0x34069a7d	1.2535925e-07
54	0xb722080d	-9.657827e-06
55	0x36ec7360	7.0467795e-06
56	0xb6b6c719	-5.4472007e-06
57	0xb71dfc0d	-9.416614e-06
58	0xa25b2fc5	-2.9705323e-18
59	0xb7251f3f	-9.842041e-06
60	0xb663cd19	-3.3945018e-06
61	0xb6f31bfa	-7.2452212e-06
62	0x37353a49	1.0802011e-05
63	0x373d9c35	1.1301648e-05
64	0x39e69439	0.00043979453
65	0xb95fe68a	-0.0002135282
66	0x3a0961e0	0.000524072
67	0xba446ae4	-0.00074927346
68	0x396cb22d	0.0002257309
69	0x398f25a5	0.00027303133
70	0xb9ac97ce	-0.000329195
71	0xb996993a	-0.00028724392
72	0xb9399004	-0.00017696625
73	0xb9871576	-0.00025765196
74	0x39b94d6f	0.00035343642
75	0xaba13f7e	-1.1457361e-12
76	0xb841f838	-4.6245957e-05
77	0xba4c6ed3	-0.00077984965
78	0x39a26f90	0.00030982168
79	0x285f8938	1.2408741e-14
80	0x2db7b1d4	2.0883663e-11
81	0xa7486aaf	-2.7813409e-15
82	0xba2a2eb7	-0.00064919464
83	0xb9ab5e5a	-0.0003268596
84	0x3a8953c2	0.0010477232
85	0x376fbb28	1.4289086e-05
86	0xba26b6ff	-0.0006359666
87	0x39f77d34	0.00047204795
88	0xb9a9297d	-0.00032265103
89	0xba10f9a5	-0.0005530364
90	0xa56bbb33	-2.0446426e-16
91	0xba207e0c	-0.0006122298
92	0xb970ae56	-0.00022953129
93	0xb9f3affb	-0.00046479687
94	0x3a2b1f32	0.0006527781
95	0x3a3636f6	0.0006950939
96	0x39dc069d	0.00041966597
97	0xb96102fe	-0.00021458787
98	0x3a00e7cd	0.00049173535
99	0xba3076c2	-0.00067315635
100	0x396fa018	0.00022852456
101	0x398fe936	0.0002744884
102	0xb9a8b9f2	-0.00032181997
103	0xb9928c79	-0.0002795195
104	0xb942e093	-0.00018584942
105	0xb989bd74	-0.0002627183
106	0x39b38cc2	0.00034246413
107	0xab692525	-8.2829777e-13
108	0xb84b4c2b	-4.846991e-05
109	0xba359718	-0.0006927117
110	0x399eb7ce	0.00030273054
111	0x284d6574	1.1401785e-14
112	0x2e800950	5.82242e-11
113	0xa8033ab0	-7.284687e-15
114	0xba1c6750	-0.00059663225
115	0xb9a86d62	-0.00032124954
116	0x3a5db3d5	0.0008457278
117	0x378bfd71	1.668811e-05
118	0xba190471	-0.00058371486
119	0x39e91e2f	0.00044463712
120	0xb9a3b033	-0.0003122106
121	0xba079759	-0.0005172394
122	0xa4f9bf1c	-1.0831029e-16
123	0xba14f8e3	-0.0005682839
124	0xb96fbe64	-0.00022863742
125	0xb9e7c8b0	-0.00044209277
126	0x3a1c6b0d	0.00059668795
127	0x3a250254	0.00062945974
128	0x385c2fc2	5.2496565e-05
129	0xb7d4ea8b	-2.5381587e-05
130	0x38866a8a	6.4094624e-05
131	0xb8b9dad2	-8.862246e-05
132	0x37e2d918	2.7042392e-05
133	0x380c2a93	3.341825e-05
134	0xb824a6d6	-3.9256025e-05
135	0xb8102d03	-3.4374196e-05
136	0xb7b45698	-2.1497995e-05
137	0xb805e76c	-3.19252e-05
138	0x382a8236	4.0652427e-05
139	0xa9debe05	-9.8917436e-14
140	0xb6b63c54	-5.431046e-06
141	0xb8bea163	-9.0899666e-05
142	0x381ca238	3.7344376e-05
143	0x27170134	2.0956112e-15
144	0x2d1e15fa	8.98614e-12
145	0xa684be6f	-9.210957e-16
146	0xb8a3ada5	-7.8047895e-05
147	0xb82471f5	-3.9206778e-05
148	0x38f08192	0.00011468226
149	0x35e43453	1.7002552e-06
150	0xb8a31d47	-7.777899e-05
151	0x387a20f9	5.9635353e-05
152	0xb820d7d5	-3.8347982e-05
153	0xb88cf7f8	-6.721908e-05
154	0xa403ace5	-2.8552544e-17
155	0xb8999e1a	-7.325057e-05
156	0xb7e5a11b	-2.7373948e-05
157	0xb868f4a1	-5.554094e-05
158	0x38a2234b	7.731336e-05
159	0x38acaef5	8.2341874e-05
160	0x3834587d	4.2997755e-05
161	0xb7aae9eb	-2.0374506e-05
162	0x386df2a3	5.6731176e-05
163	0xb89d7ff3	-7.510176e-05
164	0x37b6129e	2.170476e-05
165	0x37f4e22a	2.9192382e-05
166	0xb813cbd7	-3.523737e-05
167	0xb80231db	-3.1040847e-05
168	0xb6e8cb48	-6.937804e-06
169	0xb7fdb790	-3.0245428e-05
170	0x38009f16	3.066574e-05
171	0x285a5b76	1.2121263e-14
172	0xb697a5c8	-4.51945e-06
173	0xb893f567	-7.055216e-05
174	0x3801773d	3.0867046e-05
175	0xa62502dd	-5.7249755e-16
176	0x2e082066	3.0951595e-11
177	0xa684e458	-9.221233e-16
178	0xb88decba	-6.767498e-05
179	0xb811e79a	-3.478639e-05
180	0x38e92930	0.000111179776
181	0xb6280dc9	-2.5041975e-06
182	0xb89cd8b9	-7.4790274e-05
183	0x38867144	6.410715e-05
184	0xb80d7a13	-3.373071e-05
185	0xb8779b26	-5.9033882e-05
186	0x242bcc7d	3.7252923e-17
187	0xb87e27d2	-6.0595405e-05
188	0xb7d000ae	-2.4795849e-05
189	0xb84fc873	-4.953933e-05
190	0x387f5204	6.087312e-05
191	0x3897ee8c	7.244674e-05
192	0x3af71f60	0.0018853955
193	0xba787c58	-0.0009478978
194	0x3b00330b	0.0019561674
195	0xbb2eccc2	-0.0026672338
196	0x3a836068	0.0010023238
197	0x3a9c3d9a	0.0011920214
198	0xbab805d1	-0.0014039819
199	0xbaa55453	-0.0012613632
200	0xba512058	-0.0007977537
201	0xba918002	-0.0011100771
202	0x3ad4e70b	0.0016243173
203	0xace60da6	-6.5385084e-12
204	0xb95b50f7	-0.0002091563
205	0xbb390f00	-0.00282377
206	0x3aae69e2	0.0013306702
207	0x28c8c92e	2.2291708e-14
208	0xaf573097	-1.9571399e-10
209	0xa72f8659	-2.4358959e-15
210	0xbb1d8765	-0.0024037
211	0xbabacd88	-0.0014251927
212	0x3b3d1338	0.0028850567
213	0x3889d6e2	6.572694e-05
214	0xbb1041a1	-0.0022011774
215	0x3ad9a78a	0.0016605717
216	0xbab6b9f1	-0.0013940913
217	0xbb08743e	-0.002082124
218	0xa6d5a52b	-1.4824613e-15
219	0xbb1d892c	-0.002403806
220	0xba874334	-0.0010319711
221	0xbb013bd9	-0.001971951
222	0x3b238260	0.0024949536
223	0x3b1ff208	0.0024405736
224	0x36de7682	6.6299117e-06
225	0xb65ad0d3	-3.2606083e-06
226	0x370f1902	8.529287e-06
227	0xb7408839	-1.1475809e-05
228	0x366380f0	3.3900687e-06
229	0x3683698a	3.9163906e-06
230	0xb6ac43c3	-5.133888e-06
231	0xb6905f3e	-4.302622e-06
232	0xb622cd25	-2.425929e-06
233	0xb678e931	-3.7090615e-06
234	0x36b02e78	5.2506184e-06
235	0xb10d4ef9	-2.0563091e-09
236	0xb54592e8	-7.3601996e-07
237	0xb74b486f	-1.2116608e-05
238	0x36a0428e	4.7761196e-06
239	0x2410468f	3.1284788e-17
240	0xa92bb1ce	-3.812385e-14
241	0xa2aa2e76	-4.6127785e-18
242	0xb727839a	-9.984617e-06
243	0xb6a4e8c1	-4.914677e-06
244	0x37433e3b	1.1637395e-05
245	0x3464b25c	2.1299041e-07
246	0xb721cb5b	-9.643695e-06
247	0x36ec615f	7.0446836e-06
248	0xb6a7cc47	-5.000769e-06
249	0xb7150a53	-8.883496e-06
250	0xa493c4ea	-6.408467e-17
251	0xb71be316	-9.2915925e-06
252	0xb6613f1d	-3.356435e-06
253	0xb6eb9264	-7.020588e-06
254	0x372c9507	1.0286697e-05
255	0x37371ccf	1.09143575e-05

blocks.0.attn.W_K f4 [2, 64, 32]
0	0xbcb5b37e	-0.022180315
1	0x3c2f7784	0.010709647
2	0xbcd2cb01	-0.025731565
3	0x3d17d73a	0.03707049
4	0xbc39106f	-0.011295422
5	0xbc5cbac0	-0.013472259
6	0x3c86be92	0.016448293
7	0x3c6986fd	0.014253375
8	0x3c12114b	0.008915256
9	0x3c4fe603	0.012689116
10	0xbc940f98	-0.018073842
11	0xace2fd06	-6.4513976e-12
12	0x3b2e7b08	0.0026623625
13	0x3d1e1ace	0.03859978
14	0xbc7c2927	-0.015390671
15	0x2970fdb2	5.351075e-14
16	0xb105f848	-1.9495179e-09
17	0xaaea028f	-4.1568525e-13
18	0x3d026a55	0.031839687
19	0x3c85a7b3	0.016315317
20	0xbd307d73	-0.043088388
21	0xba7d0a5c	-0.0009652728
22	0x3cf1da1e	0.029522952
23	0xbcae18d5	-0.021252075
24	0x3c844740	0.016147256
25	0x3cde4302	0.027131561
26	0xa7541b4e	-2.9435712e-15
27	0x3cfdd801	0.030986788
28	0x3c3b8ee8	0.011447646
29	0x3cc0d693	0.023539817
30	0xbd054ec6	-0.032545827
31	0xbd098614	-0.033575132
32	0x364cb04a	3.0500983e-06
33	0x34b8b019	3.44008e-07
34	0x3687dee0	4.0492596e-06
35	0xb6c0cbb0	-5.7457582e-06
36	0x33a18735	7.521741e-08
37	0x361400b2	2.2054123e-06
38	0xb5a703b8	-1.2443552e-06
39	0xb5c66183	-1.4780529e-06
40	0xb4829128	-2.4320002e-07
41	0xb5a2a819	-1.2118863e-06
42	0x360aad3e	2.0664443e-06
43	0xa83ce3a4	-1.0485458e-14
44	0x35436a74	7.279807e-07
45	0xb6d14ddc	-6.2377494e-06
46	0x3623eeb5	2.4427839e-06
47	0xa38cc826	-1.5263597e-17
48	0xaafe5a3b	-4.5182074e-13
49	0xa42bd134	-3.7256916e-17
50	0xb6a2c81b	-4.8512716e-06
51	0xb614e87c	-2.2189042e-06
52	0x36e5c93d	6.848159e-06
53	0xb3037676	-3.0608554e-08
54	0xb69f5b2c	-4.749183e-06
55	0x362ca47f	2.5725747e-06
56	0xb612f123	-2.1896055e-06
57	0xb680ff3c	-3.8444105e-06
58	0x211bb1ad	5.2751195e-19
59	0xb69d5cb2	-4.6897558e-06
60	0xb484de77	-2.474878e-07
61	0xb63af1b3	-2.7856847e-06
62	0x36adb86e	5.177272e-06
63	0x36aedad2	5.211078e-06
64	0x39924d3a	0.00027904828
65	0xb91519ab	-0.0001421931
66	0x39ae8227	0.00033284837
67	0xba16915d	-0.0005743707
68	0x391cdfb1	0.00014960651
69	0x3938f226	0.00017637815
70	0xb95bbc2d	-0.00020955568
71	0xb941f701	-0.0001849793
72	0xb8fc4eab	-0.000120309494
73	0xb92f2c03	-0.00016705696
74	0x396e0f8d	0.00022703242
75	0xaa39ff6c	-1.6519918e-13
76	0xb81333ed	-3.509589e-05
77	0xba2558b8	-0.00063074706
78	0x394fabc2	0.00019805043
79	0x2829c0e1	9.4232085e-15
80	0x2e5c8c8b	5.0147036e-11
81	0x27b3ba1d	4.9884265e-15
82	0xb9e82066	-0.00044274627
83	0xb95a56f2	-0.0002082249
84	0x3a56866f	0.00081834843
85	0x37546d60	1.26616505e-05
86	0xb9cf4d53	-0.00039539728
87	0x398e3238	0.00027121766
88	0xb9581b88	-0.00020609621
89	0xb9b8a586	-0.0003521854
90	0xa57691b7	-2.1386469e-16
91	0xb9e2281e	-0.0004313597
92	0xb91ee902	-0.00015154856
93	0xb99bfed6	-0.0002975377
94	0x39e73889	0.00044101875
95	0x39fe2dee	0.00048480876
96	0x3aa17c87	0.0012320437
97	0xba278cb6	-0.0006391512
98	0x3abdff7d	0.0014495697
99	0xbb1743f6	-0.002308128
100	0x3a2eeaa8	0.000667254
101	0x3a4b76b5	0.0007761524
102	0xba72187b	-0.0009235215
103	0xba555b15	-0.00081388775
104	0xba1020c8	-0.0005498049
105	0xba4206a3	-0.00074015016
106	0x3a83925e	0.0010038128
107	0x2af95a29	4.4293846e-13
108	0xb94895fa	-0.00019129357
109	0xbb2372d3	-0.0024940267
110	0x3a642665	0.0008703231
111	0x289363b3	1.6363516e-14
112	0x2e1d9ac3	3.5835123e-11
113	0x296cb91e	5.256309e-14
114	0xbaf6d09f	-0.0018830484
115	0xba7048fa	-0.0009166148
116	0x3b44a549	0.0030005744
117	0x389ac137	7.379281e-05
118	0xbadf1b0c	-0.001702161
119	0x3a9b7d0c	0.0011862828
120	0xba6db281	-0.00090674317
121	0xbac94a0b	-0.001535715
122	0xa5c7739e	-3.4599342e-16
123	0xbaee3ec2	-0.0018176662
124	0xba3063b2	-0.0006728723
125	0xbaab61aa	-0.0013075371
126	0x3af9eb44	0.0019067307
127	0x3b04ae90	0.002024565
128	0xb87b87e0	-5.9969607e-05
129	0x3871128c	5.747615e-05
130	0xb88137e1	-6.1616076e-05
131	0x38b1d97b	8.4805266e-05
132	0xb86131e4	-5.3690645e-05
133	0xb817552b	-3.6080524e-05
134	0x3874692a	5.8272075e-05
135	0x384f0c30	4.9363996e-05
136	0x384833bd	4.77319e-05
137	0x384b68aa	4.8496448e-05
138	0xb858c153	-5.167846e-05
139	0x29580672	4.7967225e-14
140	0x37c683cf	2.3664817e-05
141	0x38be784d	9.082314e-05
142	0xb83410ac	-4.293087e-05
143	0x261b2186	5.382186e-16
144	0x2d07f310	7.727832e-12
145	0xa6ba844b	-1.2942201e-15
146	0x389a0217	7.3436815e-05
147	0x384d2865	4.891343e-05
148	0xb8df720d	-0.00010654712
149	0xb6eb314a	-7.0092838e-06
150	0x38910d60	6.91663e-05
151	0xb870446e	-5.728419e-05
152	0x385683d7	5.114436e-05
153	0x388782e1	6.46168e-05
154	0x225d7b3c	3.0016325e-18
155	0x38960e99	7.1552764e-05
156	0x38492758	4.7958776e-05
157	0x38817ac6	6.174068e-05
158	0xb89cf453	-7.4841686e-05
159	0xb8a15648	-7.6931494e-05
160	0xb66e2da8	-3.549134e-06
161	0x352c2a50	6.4136566e-07
162	0xb6df2dcc	-6.6512494e-06
163	0x37bcc101	2.250122e-05
164	0xb51937a4	-5.707791e-07
165	0xb55fb1d6	-8.333276e-07
166	0x35901146	1.0733863e-06
167	0x35550a8d	7.9364037e-07
168	0x3579280d	9.281801e-07
169	0x351719c2	5.6289366e-07
170	0xb5e0c58a	-1.6746792e-06
171	0xa9a4c289	-7.3168095e-14
172	0x35b05434	1.3137528e-06
173	0x37ea5ba2	2.7937644e-05
174	0xb59ae1bc	-1.1539591e-06
175	0xa65d569b	-7.679215e-16
176	0xac85f590	-3.8073503e-12
177	0xa69c625b	-1.0851334e-15
178	0x375c5aa4	1.3134126e-05
179	0x359dd34c	1.1758907e-06
180	0xb837dfa5	-4.3838885e-05
181	0xb53c281a	-7.0093813e-07
182	0x372b072e	1.0194066e-05
183	0xb67ad1eb	-3.7375091e-06
184	0x358eb658	1.0632893e-06
185	0x36fca431	7.5292996e-06
186	0xa2afa41d	-4.7607607e-18
187	0x3755049e	1.2696864e-05
188	0x350be0f1	5.210887e-07
189	0x3695cfda	4.464743e-06
190	0xb7507428	-1.2424811e-05
191	0xb78a4d13	-1.6486772e-05
192	0x3c293da9	0.010329642
193	0xbb98c6e1	-0.00466238
194	0x3c4d2a89	0.012522348
195	0xbca8c6b1	-0.020602556
196	0x3ba100cc	0.004913425
197	0x3bc10c5c	0.005891366
198	0xbbeeeb92	-0.0072912658
199	0xbbccbdef	-0.006248228
200	0xbb80342b	-0.003912469
201	0xbbb4ef6b	-0.005521705
202	0x3c05daf8	0.008169882
203	0x2c3a1503	2.6443854e-12
204	0xbaabb2bb	-0.001309953
205	0xbcadad0d	-0.021200681
206	0x3bde94db	0.0067926473
207	0x2681d96f	9.010109e-16
208	0xb07b5633	-9.1435765e-10
209	0xab005dda	-4.560498e-13
210	0xbc89cab6	-0.016820293
211	0xbbecede1	-0.007230506
212	0x3cd27c63	0.025694078
213	0x3a0652b2	0.0005124017
214	0xbc7561fd	-0.0149769755
215	0x3c21f433	0.009884882
216	0xbbe9eefd	-0.0071390853
217	0xbc5b6fc8	-0.01339335
218	0x274ce935	2.8437109e-15
219	0xbc83aabe	-0.016072627
220	0xbba371f1	-0.004987948
221	0xbc3635ac	-0.011121195
222	0x3c8a5560	0.016886413
223	0x3c8c312d	0.017113293
224	0x368553b9	3.9734555e-06
225	0xb5adc183	-1.2945824e-06
226	0x36a34ae1	4.8664956e-06
227	0xb709da3f	-8.216651e-06
228	0x35e230d0	1.6852518e-06
229	0x3618e309	2.2781917e-06
230	0xb635a046	-2.7064393e-06
231	0xb6247390	-2.450517e-06
232	0xb58e6554	-1.0609315e-06
233	0xb61505c4	-2.2206086e-06
234	0x36513c15	3.11784e-06
235	0xa7a85706	-4.672372e-15
236	0xb3f56368	-1.14267834e-07
237	0xb71400c9	-8.82167e-06
238	0x36311652	2.6388047e-06
239	0xa57feec9	-2.2198628e-16
240	0xab66d7ae	-8.201173e-13
241	0xa4de83d9	-9.650051e-17
242	0xb6e66d5b	-6.867265e-06
243	0xb64e0779	-3.0700742e-06
244	0x372b3f0b	1.0207073e-05
245	0x331346e1	3.429057e-08
246	0xb6c3636a	-5.823026e-06
247	0x367f901c	3.8081844e-06
248	0xb6340e77	-2.683051e-06
249	0xb6aed908	-5.21087e-06
250	0xa2853a44	-3.6111413e-18
251	0xb6d8638d	-6.448891e-06
252	0xb5eff385	-1.7877761e-06
253	0xb6944831	-4.419148e-06
254	0x36d3084d	6.2892564e-06
255	0x36f289ab	7.2281887e-06

blocks.0.attn.W_V f4 [2, 64, 32]
0	0xbbdd522c	-0.0067541804
1	0x3c400f2d	0.011722368
2	0x3be05dea	0.006847133
3	0xbbbd1a81	-0.005770982
4	0x3c8c05a7	0.017092539
5	0xbb0941e4	-0.0020943815
6	0x3c0cf28b	0.008602749
7	0xbca1810f	-0.01971486
8	0x3ae5eb4a	0.0017541435
9	0x3d05caf6	0.03266426
10	0x3ace981a	0.0015761883
11	0x3a680a23	0.0008851608
12	0x3ab33742	0.0013673084
13	0x3b6435bf	0.0034822074
14	0xbb43255d	-0.002977691
15	0x3948dc48	0.00019155547
16	0x3b9c1492	0.0047631944
17	0xbd3f0751	-0.046637837
18	0x3b0c9dc9	0.0021456352
19	0xbbf5e438	-0.0075040124
20	0x3c93a6b0	0.018023819
21	0xba17a3f0	-0.00057846215
22	0xbca73957	-0.020413084
23	0x3c8c3008	0.017112747
24	0xbca35b41	-0.019940974
25	0xbd1bf96b	-0.03807966
26	0xbc4a6b18	-0.012354635
27	0x3b8140ae	0.003944478
28	0x3d405d72	0.046964116
29	0xbd65c072	-0.056091733
30	0x3b0086f5	0.001961169
31	0xbd716f05	-0.058943767
32	0x3ad4e223	0.001624171
33	0xbaa7b03f	-0.0012793614
34	0xb6fdadcc	-7.56022e-06
35	0x3672dddb	3.6189947e-06
36	0x37bb6b86	2.2342207e-05
37	0x34c3f5a8	3.650032e-07
38	0x38847576	6.316129e-05
39	0xb79a5370	-1.8397084e-05
40	0x3412c73b	1.3669789e-07
41	0x373911a7	1.1030969e-05
42	0x3416f2db	1.4058189e-07
43	0xb4527b62	-1.960266e-07
44	0xb467ea60	-2.1598817e-07
45	0x35b151f3	1.3211378e-06
46	0x365c39b2	3.2816138e-06
47	0xb308e847	-3.1876223e-08
48	0xb7f8db8a	-2.9666135e-05
49	0xb80ac328	-3.3083517e-05
50	0x3568a4ba	8.6666444e-07
51	0xb7c917f4	-2.3972221e-05
52	0xb78263a0	-1.55436e-05
53	0xb39cf273	-7.308417e-08
54	0xb5e0f16e	-1.6759566e-06
55	0xb9242e09	-0.00015657408
56	0xb7a1a37d	-1.9268826e-05
57	0xb786ebdd	-1.6083877e-05
58	0xb692eebb	-4.378931e-06
59	0x372d5ee6	1.0333699e-05
60	0x381c18cc	3.7216392e-05
61	0xb7620d4e	-1.34737475e-05
62	0x3710c692	8.629302e-06
63	0x38dfeba2	0.00010677359
64	0xbb0954cd	-0.0020955086
65	0xbc84287f	-0.016132591
66	0xba6d501a	-0.00090527686
67	0x39b74f4c	0.0003496356
68	0xb9c24c27	-0.000370593
69	0x38e31164	0.00010827443
70	0x3c176979	0.009241455
71	0xba526852	-0.0008026409
72	0xb8530d12	-5.0318493e-05
73	0x3b0b3d8c	0.0021246402
74	0xb6bf4548	-5.700309e-06
75	0xb7f8d03f	-2.9660876e-05
76	0xb828393e	-4.0107632e-05
77	0xb7fc0437	-3.0042704e-05
78	0x3a11cc89	0.0005561789
79	0xb5709278	-8.962011e-07
80	0xbaafdacf	-0.001341665
81	0x38f92e27	0.00011881842
82	0xb5f5088b	-1.8256409e-06
83	0x3a4eaf3a	0.0007884387
84	0x3bbfe3b3	0.0058560013
85	0x381104fc	3.4575336e-05
86	0x3b8e10ea	0.0043355124
87	0xbb844621	-0.0040366803
88	0xbb6e3742	-0.0036348854
89	0xbb23b351	-0.0024978707
90	0xb91e58ac	-0.00015101087
91	0x3b178adc	0.0023123538
92	0x3b9c82d0	0.0047763363
93	0xbc127e45	-0.008941238
94	0x3b706e09	0.003668668
95	0x3c8f6790	0.017505437
96	0xbb99b724	-0.0046910215
97	0xbc90146d	-0.017587865
98	0xbaa9b752	-0.001294831
99	0x3a4234c8	0.0007408378
100	0x3aa2df3e	0.001242615
101	0x395ece63	0.00021248455
102	0x3b93b098	0.0045071356
103	0xba99908d	-0.0011716053
104	0xb8f0b298	-0.000114773575
105	0x3aa8b16a	0.0012870256
106	0xb89b61c0	-7.409183e-05
107	0xb85adec8	-5.218273e-05
108	0xb8c842cd	-9.549186e-05
109	0xb921e2f8	-0.00015438709
110	0x3a6cd2c7	0.0009034094
111	0xb75514b5	-1.2700611e-05
112	0xbae0b886	-0.0017144836
113	0x3b8acc6a	0.004235794
114	0xb88269d2	-6.2185936e-05
115	0x3a47582a	0.0007604385
116	0x3b98ee78	0.0046670996
117	0xb56563f9	-8.545463e-07
118	0x3bcf3df9	0.0063245264
119	0xbba8cf2a	-0.005151649
120	0xbb2dd759	-0.0026526062
121	0xbb230198	-0.0024872776
122	0x39443d1d	0.00018714783
123	0x3b2706b2	0.0025486168
124	0x3a9007bb	0.0010988632
125	0xbb941c86	-0.004520002
126	0x3b136f94	0.0022496926
127	0x3c6709f7	0.014101497
128	0x3b845262	0.004038141
129	0xb9357e9a	-0.00017308668
130	0x38575ec9	5.134827e-05
131	0xb89467b1	-7.076504e-05
132	0x3b34231b	0.0027486745
133	0xb76b1dbb	-1.4014014e-05
134	0xbc1c247f	-0.009530186
135	0x3940a98e	0.00018373711
136	0xb623f050	-2.4428773e-06
137	0x3a089e07	0.0005211536
138	0xb5bb3f54	-1.3951017e-06
139	0x3590d497	1.0790708e-06
140	0x3688212c	4.0569776e-06
141	0xb6d00be9	-6.2002696e-06
142	0x394ac278	0.00019336666
143	0xb4302d5a	-1.6407776e-07
144	0x39c40c00	0.00037392974
145	0xb8c0b676	-9.1892594e-05
146	0xb4e30973	-4.228892e-07
147	0x39defc67	0.00042531194
148	0x38a4ca54	7.857816e-05
149	0x3731fa29	1.0608267e-05
150	0xba000fc5	-0.00048851623
151	0x3a3b2fbc	0.0007140597
152	0xb9784d10	-0.00023679831
153	0xb95fbc96	-0.00021337191
154	0xb72fc1e0	-1.0475953e-05
155	0xb75d1ab9	-1.3178848e-05
156	0xb8f6cf16	-0.00011768767
157	0xba69fd20	-0.0008925963
158	0xb92dbadb	-0.00016568175
159	0xbb8fa020	-0.004383102
160	0x3a4e2a28	0.0007864558
161	0x3c187ca6	0.009307062
162	0xb8804be6	-6.117653e-05
163	0x38043f58	3.1530246e-05
164	0x3a8fc4a9	0.0010968643
165	0x368b5707	4.152654e-06
166	0x3a6cd801	0.00090348726
167	0xb84d8537	-4.8999875e-05
168	0xb63ac584	-2.783113e-06
169	0x38705942	5.7303587e-05
170	0xb5d5c9f5	-1.5928514e-06
171	0xb601df89	-1.9352613e-06
172	0xb6835040	-3.9134466e-06
173	0xb6075ff4	-2.017242e-06
174	0xb7e097c8	-2.677356e-05
175	0xb519f159	-5.734815e-07
176	0xb899cb5a	-7.333486e-05
177	0xb8d53152	-0.00010165818
178	0xb6b2270d	-5.3093595e-06
179	0x375fa442	1.333008e-05
180	0xba17c66f	-0.0005789762
181	0xb5884800	-1.0153744e-06
182	0x3a320af2	0.0006791792
183	0xba9636c8	-0.0011460418
184	0xb959a508	-0.00020756212
185	0xb9031b2a	-0.00012503253
186	0x365b74d3	3.2701544e-06
187	0x38f8a257	0.000118558
188	0x3975aabb	0.00023428623
189	0xba6f9426	-0.00091392023
190	0x381442e2	3.534824e-05
191	0x3af1cfed	0.0018448808
192	0x3af6bb2a	0.001882409
193	0x3da34da4	0.07973793
194	0xbcc9bd50	-0.024626404
195	0xbb08f02d	-0.002089511
196	0x3b81c952	0.003960767
197	0xbb18618d	-0.0023251504
198	0x3a2de741	0.0006633886
199	0xbc387f94	-0.011260886
200	0x397acc26	0.00023917909
201	0x3c46f712	0.012143867
202	0x39b454fe	0.000343956
203	0xb96c70c3	-0.00022548721
204	0x398eaf6e	0.00027215056
205	0xba3a8f8e	-0.0007116728
206	0x3b969ed8	0.0045965724
207	0x38cfe5d3	9.913337e-05
208	0xbb832f67	-0.0040034535
209	0xbb9d28dd	-0.004796131
210	0x3a24d14f	0.0006287293
211	0x3c8ec774	0.017429091
212	0xbb8370ed	-0.0040112645
213	0x39e8f58d	0.00044433438
214	0x3cfcb17f	0.030846355
215	0xbd900bfb	-0.07033535
216	0xbd2a7b35	-0.041621406
217	0xbc8647c5	-0.016391644
218	0x3b6b7e2e	0.0035933363
219	0x3c5c19e3	0.013433906
220	0x3d1ce8c1	0.03830791
221	0xbb742472	-0.0037253168
222	0x3d2aa1ad	0.041658092
223	0x3d081a49	0.033228192
224	0xb8a60df4	-7.918096e-05
225	0xb8f14dc5	-0.00011506261
226	0x34ecedfb	4.413158e-07
227	0x35ac854c	1.2853793e-06
228	0xb845ccea	-4.71593e-05
229	0x351a1912	5.740595e-07
230	0x3874053f	5.817902e-05
231	0xb6ee9c90	-7.111179e-06
232	0x32f9379a	2.90127e-08
233	0x371f3999	9.490549e-06
234	0x3467052b	2.1515432e-07
235	0x3494ffc2	2.7753237e-07
236	0x34b57e23	3.3805654e-07
237	0x33bfc09f	8.929168e-08
238	0x3634fc74	2.6969037e-06
239	0x3390eef2	6.7489864e-08
240	0xb6e1d6f8	-6.730548e-06
241	0xb703ac38	-7.848306e-06
242	0xb4e2bce9	-4.223323e-07
243	0xb707d4a1	-8.096134e-06
244	0x37691cb4	1.3894565e-05
245	0xb4dabecf	-4.0744496e-07
246	0x36b0a401	5.2643013e-06
247	0x37f0aa27	2.8689463e-05
248	0xb6ba1b6a	-5.5464234e-06
249	0xb796f3ac	-1.7994862e-05
250	0xb60a0013	-2.0563646e-06
251	0x362fe6da	2.6211405e-06
252	0x36a94af2	5.0453173e-06
253	0x381939ec	3.6531987e-05
254	0x3624c9ec	2.4555438e-06
255	0x3855213a	5.0814102e-05
