models/contain_string_acc998.pt (torch, 160395 bytes, 26 tensors)

embed.W_E f4 [33, 64]
0.11646648 0.11134688 -0.01811388 -0.2824049 0.06054436 -0.087042876 -0.04740922 -0.1628418
-0.14734368 0.23143038 0.0157207 -0.11253573 -0.067515835 -0.03671931 -0.18767229 0.0064756693
0.17446497 0.03409521 -0.071186915 0.0659393 -0.067768686 0.1670576 0.09091022 0.15002295
0.087984815 0.21770558 0.00648777 0.12542763 0.10335618 -0.009358726 -0.04720087 0.08304647
-0.13439085 -0.067514256 0.07349963 0.13614142 -0.0018155955 -0.12388523 0.09284149 -0.11360378
-0.04162667 0.13206515 -0.035079326 -0.03255435 -0.13947466 0.18349974 -0.13005376 -0.051297154
-0.09366176 -0.043086797 -0.05732699 -0.010271607 -0.033000056 0.10101697 -0.07778481 -0.05211483
-0.08794664 -0.029596608 -0.0074243895 0.1338794 -0.084563084 0.2286543 -0.2604445 0.19494674
0.16986421 0.09268836 0.26526454 0.0790309 0.03273555 -0.009828792 -0.14356187 0.072968595
-0.030247686 0.17913735 0.0711798 0.07123707 0.050416846 -0.14644107 -0.31115523 -0.11445958
-0.02918915 0.006858018 -0.122323945 -0.0787681 0.06806944 0.066206075 0.099286996 -0.02278763
0.07618712 -0.0802464 -0.1998614 0.11564605 -0.15270661 -0.11844294 0.13815549 0.08197949
-0.31126094 0.011736812 0.1581556 0.035325445 0.045882646 0.033263966 0.22739907 -0.055951927
-0.02658136 0.041625798 0.05048999 -0.013968572 -0.023463964 0.09760946 -0.0019560405 -0.12722406
-0.1408453 0.0715427 -0.12206211 0.1197685 0.064010054 -0.069026865 -0.07851049 0.06352423
0.014258638 0.0077827247 0.062132664 0.046304435 0.12296126 0.121012844 0.023772366 0.10539361
0.16617425 0.2113181 -0.13757065 -0.068555556 -0.009155238 0.12571721 0.0635784 0.10229682
0.11288697 0.015473901 -0.20801152 0.06379545 0.0049918178 0.13323466 -0.046981774 0.025021266
-0.15529358 0.11959075 0.1610771 0.1602303 0.03405943 -0.060326036 -0.07079299 -0.01566148
0.104868285 0.07849609 -0.075313255 0.18999232 -0.26275513 -0.090705626 -0.15068343 0.068885185
-0.14127293 0.022678228 0.000107695196 -0.08652511 0.016627334 -0.0032413846 -0.029843558 -0.14717461
-0.18381219 0.14975883 0.1472741 -0.017263599 -0.12868097 0.042808916 0.09360982 0.21529977
-0.00840096 -0.031074654 0.002132224 -0.048401844 -0.05397794 -0.24497585 -0.06804072 -0.0647898
0.02845207 -0.10400233 -0.25405118 0.021214804 0.11340058 -0.03232599 0.10654074 0.041614424
0.19508615 -0.0799407 0.06810693 0.00035159016 -0.16088326 0.041719854 0.051798575 0.18921645
0.05666151 0.17388457 -0.14018652 -0.040987242 0.0010531691 0.068140484 0.11043491 0.07160442
-0.04517475 -0.15320472 -0.08967058 -0.038486827 0.00813915 0.047296625 -0.024636788 -0.20727454
-0.022541974 0.08131021 -0.26424125 0.17257902 0.06163313 -0.11936899 0.023125565 0.117979184
-0.0020899677 0.19468443 0.07429796 -0.15377964 -0.019341841 0.048269328 0.027596476 0.23439793
-0.09358645 -0.048712928 -0.19133395 -0.11426051 0.013416706 0.042283904 0.09807444 0.042197227
-0.12931171 -0.037512694 -0.0747392 0.10540512 -0.079189666 0.06414582 0.0021906432 0.15854575
0.11078348 -0.020984737 0.17696553 0.060494322 0.05561644 0.11433995 0.09856189 -0.0032749348
00000000: fa85 ee3d d509 e43d 8f63 94bc 6097 90be
00000010: 5dfd 773d 8943 b2bd 2c30 42bd 00c0 26be
00000020: 43e1 16be 16fc 6c3e b3c8 803c 2279 e6bd
00000030: be45 8abd fd66 16bd 2a2d 40be da31 d43b
00000040: f2a6 323e 6ba7 0b3d 72ca 91bd 2f0b 873d
00000050: 4fca 8abd 2611 2b3e 232f ba3d 9e9f 193e
00000060: 6231 b43d 36ee 5e3e 5c97 d43b 1a70 003e
00000070: 68ac d33d 5855 19bc b355 41bd 4514 aa3d
00000080: c19d 09be ea44 8abd f986 963d a868 0b3e
00000090: 47f9 edba 8ab7 fdbd ae23 be3d 19a9 e8bd
000000a0: ba80 2abd 163c 073e 57af 0fbd b657 05bd
000000b0: 72d2 0ebe 5be7 3b3e d02c 05be f71c 52bd
000000c0: bdd1 bfbd c87b 30bd b5cf 6abd 3e4a 28bc
000000d0: 112b 07bd fce1 ce3d a44d 9fbd 5c76 55bd
000000e0: 5e1d b4bd 9674 f2bc 4b48 f3bb ae17 093e
000000f0: 692f adbd 5a24 6a3e fb58 85be 1ea0 473e
00000100: e2f0 2d3e 65d3 bd3d c1d0 873e f4da a13d
00000110: b615 063d f108 21bc e201 13be 8f70 953d
00000120: ffc9 f7bc c86f 373e b7c6 913d bee4 913d
00000130: e581 4e3d a6f4 15be bd4f 9fbe c969 eabd
00000140: 161e efbc 3ab9 e03b fa84 fabd 2b51 a1bd
00000150: fe67 8b3d 0d97 873d fb56 cb3d 20ad babc
00000160: fe07 9c3d 3958 a4bd 78a8 4cbe d6d7 ec3d
00000170: 1f5f 1cbe 3692 f2bd a278 0d3e dde4 a73d
00000180: 985d 9fbe c24b 403c 8bf3 213e 6ab1 103d
00000190: 71ef 3b3d cc3f 083d 4ddb 683e d92d 65bd
000001a0: 27c1 d9bc d07f 2a3d 97ce 4e3d 70dc 64bc
000001b0: 8037 c0bc 78e7 c73d ea30 00bb 0647 02be
000001c0: c039 10be fb84 923d b3fb f9bd 3049 f53d
000001d0: b417 833d f55d 8dbd 1cca a0bd fe18 823d
000001e0: 109d 693c 3a06 ff3b d27e 7e3d b8a9 3d3d
000001f0: 1dd3 fb3d 95d5 f73d 44be c23c 9bd8 d73d
00000200: 9529 2a3e c663 583e 52df 0cbe db66 8cbd
00000210: daff 15bc 03bc 003e 6435 823d ff80 d13d
00000220: 4931 e73d 3f86 7d3c f900 55be 30a7 823d
00000230: 6792 a33b ab6e 083e f66f 40bd 66f9 cc3c
00000240: 4805 1fbe ffeb f43d 65f1 243e 6913 243e
00000250: e781 0b3d 6f18 77bd eafb 90bd 814c 80bc
00000260: 2fc5 d63d 8fc2 a03d d63d 9abd 598d 423e
00000270: d787 86be dfc3 b9bd c24c 1abe ad13 8d3d
00000280: daa9 10be b1c7 b93c 6bda e138 1434 b1bd
00000290: 0c36 883c 696d 54bb 7a7a f4bc f1b4 16be
000002a0: 4339 3cbe 615a 193e 06cf 163e 646c 8dbc
000002b0: f2c4 03be 6758 2f3d 81b6 bf3d 8b77 5c3e
000002c0: 2ea4 09bc 4690 febc c8bc 0b3b 0341 46bd
000002d0: f917 5dbd f3da 7abe ef58 8bbd 84b0 84bd
000002e0: 5114 e93c 2cff d4bd ff12 82be abca ad3c
000002f0: 903e e83d 4268 04bd 0832 da3d e373 2a3d
00000300: aac4 473e f3b7 a3bd a57b 8b3d a255 b839
00000310: 95be 24be 70e2 2a3d be2a 543d f5c1 413e
00000320: e615 683d cc0e 323e 0e8d 0fbe 3de2 27bd
00000330: 7e0a 8a3a 3d8d 8b3d b32b e23d 57a5 923d
00000340: 2909 39bd b3e1 1cbe 36a5 b7bd 5da4 1dbd
00000350: 125a 053c 1bba 413d 17d3 c9bc c73f 54be
00000360: f2a9 b8bc f885 a63d a14a 87be 8eb8 303e
00000370: 0573 7c3d bb77 f4bd d371 bd3c 129f f13d
00000380: d7f7 08bb 5b5b 473e 8729 983d 6978 1dbe
00000390: c872 9ebc 0fb6 453d 0112 e23c 0306 703e
000003a0: 41aa bfbd 3587 47bd 0ced 43be 6a01 eabd
000003b0: bed1 5b3c e331 2d3d 41db c83d 00d7 2c3d
000003c0: 4a6a 04be e9a6 19bd de10 99bd a4de d73d
000003d0: 312e a2bd e25e 833d e590 0f3b d159 223e
000003e0: 73e2 e23d 2fe8 abbc 7436 353e e5c8 773d
000003f0: 10ce 633d 102b ea3d d1da c93d 4aa0 56bb

pos_embed.W_pos f4 [18, 64]
-0.055957947 -0.05829393 0.1268409 0.10249718 0.0030620086 -0.1621611 0.15161623 0.15678723
-0.017096996 -0.11614149 -0.12124423 -0.116796836 -0.13927637 0.055255562 -0.061063763 0.08467076
0.056976333 0.0981765 -0.17351963 -0.018152105 0.018022614 0.02965532 0.02611695 0.110977076
-0.2051335 0.023833737 -0.06709093 0.00019253527 -0.00096706906 0.10005449 -0.1317449 -0.18072715
-0.12640876 0.0016851954 0.14095053 0.01661203 0.10931469 0.075053826 0.09303578 -0.022129796
0.081199706 0.31996664 -0.015472694 -0.025252217 -0.087529965 -0.08330772 0.06743809 0.008519348
0.04252987 0.020757457 -0.09211289 -0.07646734 0.2325879 0.017171811 0.022548683 -0.0015518699
-0.075142585 -0.017933583 -0.14755857 0.13878974 0.050641738 0.096085556 -0.00085827656 0.030847166
-0.115754254 0.010085965 -0.00083595706 0.07258954 0.065438375 0.064682804 0.013977888 0.090693854
-0.031027041 -0.14344317 0.05628999 -0.1243722 0.018263215 0.00842607 -0.0055207754 0.057355173
-0.0017988558 -0.017090093 0.05179118 -0.050084036 0.018535374 -0.0006666724 -0.17768146 0.28626415
-0.049661115 0.11144948 0.05032323 -0.017399795 0.09653048 -0.119298175 -0.01674814 -0.19355434
0.084439486 0.06535018 -0.03500597 0.01929363 0.06626006 -0.04124078 -0.009626869 -0.1405916
0.10335135 0.117571585 0.07828863 -0.1415293 -0.107335605 -0.10684461 0.030046795 0.0075217066
-0.09127711 0.09265368 -0.023992516 0.1270917 0.1754743 0.06529529 0.037569057 0.10033788
0.033313796 0.055784374 -0.07681519 0.22502114 0.022801729 -0.050791945 0.073009856 0.029017983
-0.075424165 -0.07873244 0.097822756 0.067706265 -0.014227115 0.02970933 -0.07740295 0.00371343
-0.093494006 -0.03040484 0.008280175 -0.040020958 0.14513768 0.068742625 -0.0016713094 0.0024087757
-0.03313097 -0.007825812 -0.08525136 -0.014849931 0.086601675 0.13578244 -0.22527677 0.08300568
-0.07841382 0.0722221 0.03537419 0.064211264 -0.012371524 -0.07331056 -0.025487065 -0.06413256
0.19979534 -0.021324217 0.07727955 -0.029116455 -0.01663063 0.03648765 0.04384102 -0.0017340063
0.13397895 0.20867863 0.06703814 -0.05751069 -0.06746817 0.053625695 -0.07200621 0.04334665
-0.044315055 0.0051423637 0.15712002 0.012092196 -0.01857138 -0.039689675 -0.05883215 0.20494895
-0.062446505 0.1471274 0.004450767 0.09356591 -0.010736823 0.0016029832 0.053765453 0.13556352
-0.1577114 -0.09804017 -0.014603885 0.056060135 0.010563156 0.06937582 -0.0704641 0.06048397
-0.04502868 -0.04654858 0.014607133 0.049116913 0.04892873 0.16933204 -0.009971506 0.07867767
0.028540397 -0.010045614 -0.20292048 -0.09862901 0.18616918 0.011295205 -0.0035733613 0.098495066
0.03038787 0.082870565 0.09314625 0.11467063 0.017666157 -0.0872496 -0.012213841 0.060939323
0.03565084 -0.10994407 -0.06026986 -0.08124391 -0.016221115 -0.027155621 0.03079628 -0.07171582
-0.08193493 0.055385582 0.053482346 -0.018216766 0.11179194 0.03763096 0.11543255 -0.066094555
-0.13254853 0.15381394 -0.025323441 -0.13358887 0.08786976 0.043519963 -0.060246617 0.14338484
-0.018495688 0.07820497 -0.01532614 0.07573294 -0.08494187 -0.048006248 -0.032474183 0.02718914
00000000: 2934 65bd 9ec5 6ebd 95e2 013e 0bea d13d
00000010: fbab 483b 8f0d 26be 4941 1b3e d58c 203e
00000020: 000f 8cbc 97db edbd e54e f8bd 2e33 efbd
00000030: 779e 0ebe a853 623d ff1d 7abd dd67 ad3d
00000040: 0460 693d c310 c93d 21af 31be b9b3 94bc
00000050: 29a4 933c b7ef f23c 37f3 d53c f347 e33d
00000060: 840e 52be f83e c33c f866 89bd 4be3 4939
00000070: e882 7dba 5ee9 cc3d 23e8 06be 8a10 39be
00000080: 4c71 01be c6e1 dc3a 5655 103e f415 883c
00000090: 61e0 df3d d2b5 993d 8b89 be3d 8c49 b5bc
000000a0: 084c a63d abd2 a33e 2f81 7dbc bddd cebc
000000b0: e942 b3bd 3d9d aabd fb1c 8a3d bc94 0b3c
000000c0: cd33 2e3d 8b0b aa3c afa5 bcbd e99a 9cbd
000000d0: 862b 6e3e e6ab 8c3c 04b8 b83c 1d68 cbba
000000e0: 5be4 99bd 73e9 92bc 9819 17be e61e 0e3e
000000f0: b66d 4f3d 81c8 c43d f7fd 60ba 32b3 fc3c
00000100: 9110 edbd 9a3f 253c 2124 5bba d3a9 943d
00000110: 8e04 863d 6b78 843d 8303 653c b3bd b93d
00000120: 6c2c febc c4e2 12be 5590 663d dab6 febd
00000130: bd9c 953c 800d 0a3c 9fe7 b4bb 42ed 6a3d
00000140: 96c7 ebba 8600 8cbc fd22 543d eb24 4dbd
00000150: 7fd7 973c a1c3 2eba 21f2 35be 3791 923e
00000160: 7469 4bbd a03f e43d bb1f 4e3d 048a 8ebc
00000170: c6b1 c53d 9a52 f4bd 6533 89bc 1c33 46be
00000180: 9cee ac3d 51d6 853d 6c62 0fbd ad0d 9e3c
00000190: 5bb3 873d 18ec 28bd 04ba 1dbc 3ff7 0fbe
000001a0: dfa9 d33d 5fc9 f03d ca55 a03d 0fed 10be
000001b0: c5d2 dbbd 59d1 dabd b224 f63c a678 f63b
000001c0: 7eef babd 36c1 bd3d f48b c4bc 5424 023e
000001d0: 89af 333e 89b9 853d 03e2 193d f27d cd3d
000001e0: 0c74 083d 287e 643d 4851 9dbd f16b 663e
000001f0: b1ca ba3c 370b 50bd 3186 953d 1fb7 ed3c
00000200: fc77 9abd 793e a1bd 4c57 c83d 95a9 8a3d
00000210: d818 69bc fb60 f33c 7085 9ebd 045d 733b
00000220: c979 bfbd 9213 f9bc 92a9 073c 04ed 23bd
00000230: f99e 143e efc8 8c3d d60f dbba 8ddc 1d3b
00000240: 57b4 07bd d637 00bc 4498 aebd 204d 73bc
00000250: 385c b13d 8d0a 0b3e f4ae 66be e2fe a93d
00000260: 6d97 a0bd 2ee9 933d 87e4 103d 3281 833d
00000270: efb1 4abc d923 96bd 40ca d0bc ee57 83bd
00000280: 2697 4c3e 20b0 aebc be44 9e3d a285 eebc
00000290: f53c 88bc 1374 153d a492 333d 9947 e3ba
000002a0: c731 093e daaf 553e 4b4b 893d 5490 6bbd
000002b0: c02c 8abd 9ea6 5b3d fe77 93bd 428c 313d
000002c0: b483 35bd 4681 a83b 12e4 203e 591e 463c
000002d0: 0223 98bc a491 22bd fbf9 70bd 23de 513e
000002e0: e8c7 7fbd 91a8 163e bdd7 913b 7c9f bf3d
000002f0: 80e9 2fbc 311b d23a 2a39 5c3d 2ad1 0a3e
00000300: 197f 21be 49c9 c8bd 2245 6fbc 509f 653d
00000310: 1611 2d3c e914 8e3d 7b4f 90bd 0abe 773d
00000320: fe6f 38bd b9a9 3ebd c252 6f3c d12e 493d
00000330: 7e69 483d 6165 2d3e 875f 23bc c221 a13d
00000340: 8dcd e93c 5c96 24bc 63ca 4fbe 02fe c9bd
00000350: 22a3 3e3e 860f 393c 0e2f 6abb c8b7 c93d
00000360: fbef f83c 0bb8 a93d 76c3 be3d 6fd8 ea3d
00000370: 9eb8 903c ebaf b2bd 901c 48bc 839b 793d
00000380: 9d06 123d 5b2a e1bd 87dd 76bd 3563 a6bd
00000390: 25e2 84bc 7775 debc 7b48 fc3c bedf 92bd
000003a0: 80cd a7bd fedb 623d 4e10 5b3d 543b 95bc
000003b0: 2cf3 e43d ec22 1a3d e767 ec3d 955c 87bd
000003c0: cdba 07be 6781 1d3e 1b73 cfbc 85cb 08be
000003d0: 10f5 b33d fd41 323d 28c5 76bd 7ad3 123e
000003e0: 4584 97bc ed29 a03d 7e1a 7bbc df19 9b3d
000003f0: 01f6 adbd 33a2 44bd a603 05bd c2bb de3c

blocks.0.ln1.w f4 [64]
0.9938545 0.95997643 0.9217329 0.983191 1.0198315 0.9414375 0.8902915 1.025956
0.95413333 1.0065947 1.000445 0.99824965 1.007181 0.9629198 1.0171642 0.975055
0.9139983 0.9799205 1.000143 1.0029775 1.0255827 1.0003052 0.97298723 0.9794543
1.0030295 0.9708975 0.9898588 0.97643495 0.9709977 1.0016042 0.96940416 1.0234998
1.0106127 1.0158867 1.0173769 1.0179546 0.9827836 0.9683479 0.9771041 0.98305494
0.9390523 0.9976139 1.0180112 0.9228566 1.0043525 0.9971732 1.0109293 0.99021995
0.97176415 1.025013 0.94565547 0.98475236 0.9983128 0.96367764 0.9039907 1.010986
0.9554315 0.9476864 0.987394 1.0215205 1.0252202 0.8813357 0.95066345 1.0166924
00000000: 406d 7e3f 04c1 753f b0f6 6b3f 68b2 7b3f
00000010: d789 823f 0c02 713f 25ea 633f 8752 833f
00000020: 1542 743f 18d8 803f 950e 803f 4a8d 7f3f
00000030: 4feb 803f e981 763f 7032 823f 349d 793f
00000040: cbfb 693f 12dc 7a3f b004 803f 9161 803f
00000050: 4b46 833f 000a 803f b115 793f 84bd 7a3f
00000060: 4563 803f bd8c 783f 6367 7d3f a4f7 793f
00000070: 4e93 783f 9134 803f df2a 783f 0b02 833f
00000080: c25b 813f 9308 823f 6839 823f 564c 823f
00000090: b597 7b3f a6e5 773f 7f23 7a3f 7da9 7b3f
000000a0: bb65 703f a063 7f3f 314e 823f 5540 6c3f
000000b0: 9f8e 803f be46 7f3f 2266 813f 0e7f 7d3f
000000c0: 89c5 783f a033 833f 7a16 723f bb18 7c3f
000000d0: 6d91 7f3f 94b3 763f ef6b 673f fd67 813f
000000e0: 2997 743f 939b 723f dac5 7c3f 2fc1 823f
000000f0: 6a3a 833f 379f 613f ae5e 733f fa22 823f

blocks.0.ln1.b f4 [64]
-0.0021260187 0.0016937844 -0.008045138 0.015234436 -0.029199764 0.013705836 0.02287293 0.004608453
0.009338572 0.015770694 -0.0036788045 0.044683218 -0.0074502816 -0.043195654 0.006555016 0.020152057
-0.024444941 0.02627396 -0.0094303265 -0.0075993054 0.015915599 0.0052611297 -0.010138633 0.010596981
0.009663817 -0.007065255 0.0062376857 0.0058592204 0.019088095 0.0063286647 -0.023759432 0.01966917
0.017618477 -0.010755851 -0.0064075007 0.018404875 0.012426253 -0.0022498337 -0.006164626 0.012697196
-0.003970887 0.00488448 0.005948978 0.0018440627 -0.0075952113 -0.016423628 0.019532135 0.00085499056
-0.004576865 0.010303179 0.016588906 -0.011236462 -0.025202496 -0.002555559 -0.008331244 0.0016455937
0.027803129 0.032280605 0.0026492947 -0.0016763016 -0.0023100625 -0.003896459 -0.024671186 0.023450304
00000000: ad54 0bbb f901 de3a c1cf 03bc db99 793c
00000010: 5834 efbc 718e 603c 0360 bb3c 8102 973b
00000020: cf00 193c 8b31 813c 1918 71bb c005 373d
00000030: 7e21 f4bb eded 30bd 76cb d63b ed15 a53c
00000040: c240 c8bc 7d3c d73c a881 1abc 9803 f9bb
00000050: 6e61 823c 8e65 ac3b 821c 26bc f69e 2d3c
00000060: fc54 1e3c a883 e7bb 8065 cc3b b4fe bf3b
00000070: a35e 9c3c b060 cf3b 24a3 c2bc 3d21 a13c
00000080: a054 903c 4f39 30bc 03f6 d1bb d2c5 963c
00000090: 7c97 4b3c f271 13bb a200 cabb e607 503c
000000a0: 371e 82bb fd0d a03b a5ef c23b 7ab4 f13a
000000b0: 40e1 f8bb d88a 86bc db01 a03c 7221 603a
000000c0: 87f9 95bb aace 283c 75e5 873c 2319 38bc
000000d0: 7775 cebc 2a7b 27bb c57f 08bc f6b0 d73a
000000e0: 63c3 e33c ab38 043d ca9f 2d3b 59b7 dbba
000000f0: 6b64 17bb bc5b 7fbb 3a1b cabc da1a c03c

blocks.0.attn.W_Q f4 [2, 64, 32]
0.06319477 0.04866638 0.1362151 0.074283116 0.078882836 -0.08249441 -0.0010900314 0.065272205
0.07957884 0.031580444 -0.008933244 0.08076927 0.037404925 -0.21013956 0.021996262 -0.13813992
-0.10615345 0.015103761 -0.043557473 -0.13956347 -0.018229438 0.040203974 -0.11023443 0.0029625744
-0.06530853 -0.094136 0.11733298 0.19442168 -0.061348196 -0.19453031 0.06689589 -0.11182838
-0.01893102 -0.16829209 -0.02670289 -0.046765383 -0.07062654 -0.103560135 0.120295234 -0.021412866
0.034952056 -0.013076608 0.076736726 0.04673048 0.09917895 -0.036644977 -0.023277657 0.08338399
-0.005163939 -0.028795026 -0.017835496 -0.17116675 -0.023197722 -0.11871496 0.04898513 0.020440299
-0.13361473 -0.018255435 -0.068315856 0.027550466 0.015119311 0.14917538 0.16622622 -0.050790545
0.0930212 0.03693203 -0.08945753 0.008248323 -0.099312514 -0.06639947 0.02436533 -0.1057609
-0.24881017 -0.00013658102 0.21801071 -0.0463245 0.10349708 -0.07625354 -0.038097557 0.13295667
-0.07515947 -0.13937287 0.090914495 0.12780212 -0.04601165 -0.07280817 0.32707167 -0.024679592
-0.09140011 -0.10673467 0.06399936 0.0031952932 -0.025196895 -0.029596582 -0.19777393 0.11838698
0.090378076 0.0013069409 -0.1542991 0.0009350731 0.08889279 0.039811913 -0.07644239 -0.13731684
-0.026931215 -4.3759446e-05 -0.15249364 0.13941269 0.05413532 0.14696936 -0.07654741 -0.10813992
0.1235133 0.06361431 -0.20207068 -0.117566444 0.076813504 0.056959134 -0.21009356 -0.2110984
0.041584793 0.26698977 0.085684374 -0.10297752 0.030963924 0.08581092 -0.026102152 0.07103431
0.033354145 -0.10121695 0.029833307 0.095469184 0.0016638456 -0.043522272 -0.0056025013 -0.051149163
0.077575624 0.113978274 -0.106905125 0.07048948 -0.09800827 -0.16707948 -0.0046128496 0.14541383
-0.025134083 0.003204479 -0.06216193 -0.22199416 0.055644352 0.005856272 -0.06271017 -0.1248617
-0.090667985 -0.03845917 0.017865995 0.11832567 0.023747519 -0.04054228 -0.11894882 0.022811651
0.074029654 -0.022269586 0.16537172 0.08138947 0.08229175 0.041726317 0.016231032 0.0071173403
-0.18212047 -0.019706681 -0.09793343 0.04666148 -0.23056817 6.127866e-05 0.07945786 -0.02748586
-0.000530251 0.093777135 0.043867484 0.049228743 -0.121224135 0.2269309 0.055068925 -0.05760103
0.11183669 -0.00024153723 -0.0019803436 0.04799887 0.06784376 0.19419345 0.17843805 -0.0054527773
0.077188 0.11826697 0.149306 -0.06510262 -0.096731156 -0.010453356 0.15130477 -0.11836014
-0.0638153 0.04401239 0.05777209 0.031343676 0.0004128051 -0.10554408 -0.01433211 -0.15080652
-0.0057627102 -0.013252341 0.080213405 0.11710299 0.13095702 -0.010976548 0.005895848 0.0005820788
-0.1207189 0.13685317 -0.13762146 0.07808766 -0.048156027 -0.058467574 0.015850559 -0.05972964
-0.04167296 0.0060394504 0.0856776 -0.035988487 0.21487002 -0.035909846 0.038636684 -0.023775157
-0.12547725 0.13646474 0.10225811 -0.040138457 0.003930072 0.032989357 0.054581616 -0.053375926
-0.06540015 0.09198927 0.11683663 0.050308745 0.13713396 0.1808551 -0.012564573 -0.09112705
-0.102523275 0.0027553737 -0.09111316 0.040348597 0.10648146 0.09626182 0.11073041 0.06455533
00000000: 426c 813d 6656 473d f97b 0b3e bf21 983d
00000010: 538d a13d d4f2 a8bd 62df 8eba 6fad 853d
00000020: 3bfa a23d 7f5a 013d be5c 12bc 5c6a a53d
00000030: e835 193d d32e 57be 8131 b43c 8d74 0dbe
00000040: fb66 d9bd c475 773c 5269 32bd bae9 0ebe
00000050: e755 95bc ecac 243d 97c2 e1bd c027 423b
00000060: 7bc0 85bd 60ca c0bd 464c f03d 7a16 473e
00000070: 3f48 7bbd f432 47be b600 893d 4706 e5bd
00000080: 3a15 9bbc c354 2cbe 05c0 dabc 0f8d 3fbd
00000090: a6a4 90bd 5617 d4bd 595d f63d 096a afbc
000000a0: e329 0f3d 453f 56bc 2528 9d3d 7668 3f3d
000000b0: 551e cb3d 0b19 16bd c9b0 bebc 3ac5 aa3d
000000c0: 4336 a9bb 8ce3 ebbc bf1b 92bc 5646 2fbe
000000d0: 2609 bebc d420 f3bd a2a4 483d 6a72 a73c
000000e0: 4dd2 08be 6c8c 95bc 2fe9 8bbd 84b1 e13c
000000f0: fdb6 773c 6ec1 183e 3537 2a3e bf09 50bd
00000100: e681 be3d 0a46 173d 8235 b7bd f923 073c
00000110: 5c64 cbbd 72fc 87bd cd99 c73c 2c99 d8bd
00000120: 18c8 7ebe 3037 0fb9 333e 5f3e c2be 3dbd
00000130: 47f6 d33d d12a 9cbd 2f0c 1cbd cb25 083e
00000140: 35ed 99bd c3b7 0ebe 6131 ba3d 8fde 023e
00000150: b676 3cbd 731c 95bd f075 a73e db2c cabc
00000160: fb2f bbbd b597 dabd 1912 833d 2068 513b
00000170: b869 cebc 8874 f2bc 4085 4abe df74 f23d
00000180: 2418 b93d a94d ab3a 9500 1ebe b21f 753a
00000190: 6c0d b63d d111 233d d48d 9cbd c99c 0cbe
000001a0: da9e dcbc 598a 37b8 4b27 1cbe 33c2 0e3e
000001b0: ffbc 5d3d 237f 163e e3c4 9cbd 7678 ddbd
000001c0: 8bf4 fc3d 3848 823d 9eeb 4ebe adc6 f0bd
000001d0: 6650 9d3d fb4d 693d c422 57be 2e2a 58be
000001e0: d154 2a3d e2b2 883e 4a7b af3d e1e5 d2bd
000001f0: 0ea8 fd3c a3bd af3d 2ed4 d5bc 707a 913d
00000200: 5b9e 083d d54a cfbd fb64 f43c 5985 c33d
00000210: 6515 da3a 6944 32bd 3095 b7bb c981 51bd
00000220: f8df 9e3d 716d e93d 13f1 dabd ca5c 903d
00000230: 8fb8 c8bd e216 2bbe 6327 97bb 5de7 143e
00000240: fee5 cdbc 3d02 523b 829d 7ebd 7052 63be
00000250: 55eb 633d f8e5 bf3b 316e 80bd 7eb7 ffbd
00000260: 23b0 b9bd 5d87 1dbd b55b 923c bb54 f23d
00000270: 288a c23c a90f 26bd 709b f3bd 80df ba3c
00000280: dc9c 973d b56e b6bc 3457 293e 86af a63d
00000290: 9488 a83d 37e9 2a3d f1f6 843c 9438 e93b
000002a0: ca7d 3abe e86f a1bc 5291 c8bd 1c20 3f3d
000002b0: 101a 6cbe bb82 8038 cdba a23d 072a e1bc
000002c0: 8b00 0bba 3a0e c03d 64ae 333d 14a4 493d
000002d0: 5c44 f8bd 9360 683e f48f 613d 0fef 6bbd
000002e0: a20a e53d 2845 7db9 a7c8 01bb 779a 443d
000002f0: abf1 8a3d a6da 463e 77b8 363e 36ad b2bb
00000300: be14 9e3d f435 f23d ace3 183e 8654 85bd
00000310: fc1a c6bd 8e44 2bbc a3ef 1a3e cd66 f2bd
00000320: 99b1 82bd 5646 343d 6da2 6c3d 3a62 003d
00000330: c36d d839 7f27 d8bd 3ad1 6abc 066d 1abe
00000340: 1ed5 bcbb 5920 59bc ed46 a43d b1d3 ef3d
00000350: 9919 063e fbd6 33bc f531 c13b a696 183a
00000360: 783b f7bd 3d23 0c3e a4ec 0cbe 6cec 9f3d
00000370: 413f 45bd b27b 6fbd 08d9 813c 11a7 74bd
00000380: 44b1 2abd 95e6 c53b bd77 af3d aa68 13bd
00000390: e306 5c3e 3416 13bd 8041 1e3d 1ec4 c2bc
000003a0: 1c7d 00be 6abd 0b3e b36c d13d 3968 24bd
000003b0: d5c7 803b d91f 073d f990 5f3d b7a0 5abd
000003c0: 84f0 85bd df64 bc3d 0b48 ef3d 8b10 4e3d
000003d0: d86c 0c3e 1432 393e a4db 4dbc d2a0 babd
000003e0: b9f7 d1bd 8093 343b 8999 babd 9244 253d
000003f0: f412 da3d eb24 c53d a0c6 e23d 9635 843d

blocks.0.attn.W_K f4 [2, 64, 32]
-0.021989886 -0.016329214 0.04558057 0.011972241 0.13167942 -0.21627517 0.12783669 -0.048523538
0.033713095 0.09960652 -0.032105945 -0.1881121 -0.14467 0.1403144 0.08467429 -0.05287474
-0.19293171 -0.06430262 0.13870116 0.10582162 -0.0689941 0.06758155 -0.001275757 0.071831636
0.04255317 0.048115477 -0.01725418 0.23556435 0.12617351 -0.11446037 -0.03697127 0.023264606
-0.019524507 -0.08578924 -0.11824622 0.021156317 -0.07052659 -0.025526669 0.14534646 -0.16115409
-0.019875253 0.07804617 -0.26760173 0.14692459 0.18654916 -0.013362492 0.15936053 -0.12324022
0.11341174 0.08860514 -0.11821185 -0.08573046 -0.10081906 -0.15718202 0.021562358 0.09664235
0.13045916 -0.009328079 -0.10087273 -0.025419053 0.0062684473 -0.09199162 0.0024236601 0.024855016
0.2358704 -0.16566198 0.037224554 0.012697494 -0.06375154 -0.101188526 0.059427 0.031875264
-0.050327096 0.10081941 0.12325408 0.073427945 0.05107791 -0.056459893 -0.09770551 -0.023837022
-0.11046149 0.17611247 -0.049790848 0.024628177 0.10136479 -0.026523143 -0.017375067 -0.0827872
0.12323155 -0.01849962 -0.15395288 -0.08444303 -0.148907 0.05717173 -0.13263881 0.07148561
-0.10885582 0.022258064 -0.13429426 -0.21934508 0.08105651 0.009459353 -0.20624058 -0.16001236
0.07982608 -0.1570726 0.033609226 -0.007987486 0.10198255 0.12403205 -0.09549475 0.10031283
-0.12008301 -0.093696386 -0.01604726 -0.1795124 0.13969214 0.25720453 -0.024495224 0.057390455
-0.023162903 0.20503747 0.07051287 0.067091025 -0.30644917 0.07159333 0.19265595 -0.09585799
0.21103434 0.012897522 -0.08282152 -0.051353816 -0.038409244 0.13398314 0.0045306343 -0.11159245
0.056971263 0.026913453 0.03563947 0.12623426 0.19259809 -0.13326871 -0.07319389 0.03223108
0.00038414286 -0.021444352 -0.16561463 -0.10070645 0.08681292 0.06819884 -0.0056637875 -0.16757613
0.10905256 -0.12424708 -0.04836552 0.0062260763 0.040134642 -0.06911908 -0.17262815 -0.038775284
0.041612502 0.042250145 0.04910872 0.068031274 -0.031273376 0.19878283 0.12442519 0.045912232
0.12482465 0.11354443 -0.078960635 0.053337038 -0.03947627 -0.18302605 0.05164773 -0.10904454
0.04071494 0.048890043 -0.07956076 0.17201592 -0.16290812 0.14414907 -0.03228467 0.13129024
0.019242536 -0.10276498 -0.15498847 -0.13402003 -0.15314944 -0.15831126 0.012687865 0.11722586
-0.022703512 -0.07302924 0.066602394 -0.07933277 0.0018780272 0.081030644 -0.2962752 0.115918264
0.09668709 -0.02083148 -0.023513915 0.17594826 -0.095074356 -0.03050534 -0.1935467 0.025314085
-0.013102289 -0.077528276 0.2132811 0.07726708 0.10089003 0.12611033 0.07163232 -0.017935978
-0.05472802 -0.055478916 0.0206231 -0.0860928 -0.039290614 -0.06419381 0.2154224 0.15546781
-0.07403931 0.09175324 -0.021531176 -0.112320065 0.095566206 0.1559104 -0.040532302 -0.088259496
0.027375994 0.18187223 0.06402578 -0.028397901 0.11654701 0.14190134 0.053596057 -0.072595574
-0.22554334 0.11131055 0.05762988 -0.015689284 -0.050939646 -0.012049067 0.13073266 0.018186487
-0.020873083 0.0672612 0.038851906 0.0070280507 0.09064105 -0.010103695 -0.010413329 -0.06416997
00000000: 2224 b4bc d8c4 85bc b1b2 3a3d 3827 443c
00000010: f8d6 063e 3d77 5dbe 9fe7 023e 9ec0 46bd
00000020: be16 0a3d 81fe cb3d 8681 03bd 75a0 40be
00000030: 5f24 14be 94ae 0f3e b769 ad3d 2f93 58bd
00000040: e48f 45be 18b1 83bd ad07 0e3e 01b9 d83d
00000050: c74c 8dbd 3268 8a3d 4d37 a7ba 771c 933d
00000060: 3c4c 2e3d bc14 453d a358 8dbc c837 713e
00000070: a133 013e 336a eabd 306f 17bd 6a95 be3c
00000080: dcf1 9fbc 45b2 afbd 132b f2bd 0350 ad3c
00000090: 3f70 90bd 4e1d d1bc b4d5 143e 9405 25be
000000a0: 6dd1 a2bc acd6 9f3d 1803 89be 6673 163e
000000b0: be06 3f3e 5bee 5abc 682f 233e 5e65 fcbd
000000c0: 6a44 e83d 9d76 b53d 0e19 f2bd 7493 afbd
000000d0: 397a cebd 53f4 20be 8ba3 b03c 6dec c53d
000000e0: 1697 053e cdd4 18bc 5d96 cebd 9e3b d0bc
000000f0: 8c67 cd3b 1a66 bcbd 45d6 1e3b bf9c cb3c
00000100: 0388 713e 4ba3 29be c678 183d 2609 503c
00000110: 2b90 82bd ee3b cfbd ba69 733d a38f 023d
00000120: c923 4ebd 687a ce3d a36c fc3d 6461 963d
00000130: 1237 513d 7d42 67bd d419 c8bd dc45 c3bc
00000140: a239 e2bd d456 343e 7df1 4bbd 08c1 c93c
00000150: 5898 cf3d 1047 d9bc 2856 8ebc 568c a9bd
00000160: d360 fc3d 848c 97bc d3a5 1dbe 78f0 acbd
00000170: 147b 18be e72c 6a3d 78d2 07be 0c67 923d
00000180: cdef debd 8b56 b63c 6f84 09be ff9b 60be
00000190: f500 a63d 67fb 1a3c bb30 53be 48da 23be
000001a0: db7b a33d a4d7 20be d4a9 093d f2dd 02bc
000001b0: 3adc d03d 8404 fe3d c092 c3bd d070 cd3d
000001c0: 15ee f5bd e4e3 bfbd 8b75 83bc 19d2 37be
000001d0: 750b 0f3e 50b0 833e 35aa c8bc 4112 6b3d
000001e0: 21c0 bdbc 58f5 513e 0d69 903d 0567 893d
000001f0: e8e6 9cbe 869f 923d 9a47 453e 3251 c4bd
00000200: 6319 583e 2150 533c 549e a9bd 6158 52bd
00000210: 0353 1dbd e032 093e b775 943b 958a e4bd
00000220: b35a 693d 9a79 dc3c b1fa 113d 8e43 013e
00000230: 6f38 453e 9877 08be aee6 95bd bd04 043d
00000240: c866 c939 11ac afbc e296 29be 2f3f cebd
00000250: f9ca b13d d5ab 8b3d 4b97 b9bb 1499 2bbe
00000260: f356 df3d 4175 febd ec1a 46bd 1d04 cc3b
00000270: 3964 243d 4e8e 8dbd 6fc5 30be d5d2 1ebd
00000280: df71 2a3d 7d0e 2d3d 3a26 493d fb53 8b3d
00000290: 8318 00bd ba8d 4b3e a2d2 fe3d 770e 3c3d
000002a0: 11a4 ff3d fb89 e83d 1db6 a1bd f077 5a3d
000002b0: dfb1 21bd 2e6b 3bbe 928c 533d be52 dfbd
000002c0: b5c4 263d ed40 483d c0f0 a2bd f124 303e
000002d0: 63d1 26be d09b 133e ee3c 04bd f370 063e
000002e0: 86a2 9d3c 7276 d2bd 4cb5 1ebe 8c3c 09be
000002f0: 35d3 1cbe 591c 22be c3e0 4f3c 1d14 f03d
00000300: b7fc b9bc 5b90 95bd d666 883d 3879 a2bd
00000310: 2328 f63a 65f3 a53d 62b1 97be 8e66 ed3d
00000320: e203 c63d c8a6 aabc 41a0 c0bc c82b 343e
00000330: 58b6 c2bd 56e6 f9bc 1b31 46be 7c5f cf3c
00000340: fcaa 56bc 25c7 9ebd 5c66 5a3e 343e 9e3d
00000350: 6f9f ce3d 1123 013e f7b3 923d 79ee 92bc
00000360: 7d2a 60bd dc3d 63bd c7f1 a83c 6c51 b0bd
00000370: 32ef 20bd 0b78 83bd b197 5c3e f432 1f3e
00000380: eca1 97bd 1fe9 bb3d 2662 b0bc 1008 e6bd
00000390: 37b8 c33d faa6 1f3e 3305 26bd 65c1 b4bd
000003a0: 9f43 e03c b73c 3a3e f31f 833d b7a2 e8bc
000003b0: 33b0 ee3d 964e 113e 8a87 5b3d fdac 94bd
000003c0: d5f4 66be c9f6 e33d 4f0d 6c3d d086 80bc
000003d0: 17a6 50bd 7369 45bc c8de 053e d4fb 943c
000003e0: 07fe aabc 3dc0 893d 2d23 1f3d 904b e63b
000003f0: 04a2 b93d f889 25bc ab9c 2abc 8c6b 83bd

blocks.0.attn.W_V f4 [2, 64, 32]
0.17578225 -0.07376876 -0.15521191 0.02267404 -0.037845023 0.058134727 0.011757205 0.19789986
-0.12322439 -0.069108196 0.038288753 -0.113702975 0.006556482 -0.13720436 -0.11691956 0.057269357
0.1773069 0.033015776 -0.032480072 0.10841381 0.20382804 -0.055574752 0.070084974 -0.07544924
0.12015562 -0.08261659 -0.08228302 -0.03576492 0.14912874 -0.1340646 -0.14738096 0.030011455
-0.052010883 0.21475402 -0.0022579383 0.022189477 -0.08720393 0.111707255 -0.1840593 -0.102636494
0.17367847 -0.10866855 -0.041403934 -0.18227774 0.08591671 0.030570915 0.10091053 0.07307126
-0.10967233 0.03225509 0.1407243 0.012158231 0.015025524 0.06400186 -0.018464476 0.048430942
0.045150127 0.079619795 0.122707754 -0.11939952 0.00047294807 -0.024553725 -0.026747873 -0.13980506
-0.016235603 0.0016335559 0.029252516 -0.038018413 -0.049172096 -0.07237642 0.050055392 0.093240075
0.00054365885 0.07959829 -0.16666904 0.015335014 -0.17731899 0.14919367 0.13682055 0.16500553
0.045822673 0.03486693 0.051681854 -0.17950328 0.0027277379 0.04214029 0.110992365 0.0050975997
-0.104865804 -0.10381108 0.13298023 -0.12535198 0.027418349 0.16980882 0.11665578 -0.106336094
0.056889355 0.05984576 0.014663714 -0.10108036 -0.15352628 -0.21950786 -0.06676021 0.03616828
-0.0017094181 -0.0332435 -0.13269249 0.064407244 -0.02433478 -0.0077574807 -0.039935436 -0.15076394
0.0648703 -0.028485514 0.15936631 -0.1063838 0.006518048 0.13124593 -0.05240715 0.042266414
-0.05224342 0.054563884 0.15191749 -0.08124689 -0.011987727 -0.011043933 -0.13697769 -0.20086578
0.045258436 0.11626714 -0.021715453 0.12861127 0.097973816 0.0487669 0.091636755 0.082515575
-0.08720522 0.049392827 0.117295116 0.107619144 -0.17207272 -0.09356054 -0.03631048 0.027000787
0.015375021 0.06848525 -0.1345148 0.016072137 -0.11788948 -0.0047907433 -0.019123053 -0.019031381
-0.12939261 -0.13235621 -0.10341232 -0.13663161 -0.1150366 -0.03816244 0.15861881 0.09821727
0.067384236 0.13446367 0.15691616 -0.011826764 0.10509453 -0.03822023 -0.101033695 -0.11088464
0.011304882 -0.074968606 0.014776886 -0.18574792 -0.025003038 -0.23378055 0.013899833 0.025929792
0.07527377 -0.046181593 0.14258425 0.042718437 -0.08629011 -0.09327142 -0.0112294275 0.019666042
-0.072322056 -0.08425218 0.18460979 0.11230631 0.057329748 0.007709409 0.01872043 -0.024637472
-0.1355658 0.10902178 0.11747584 0.006636174 0.039024983 0.0022296226 -0.020691395 -0.14700866
-0.0065627676 0.04803166 -0.103670135 -0.13393278 0.010606818 -0.02216765 -0.00040214518 -0.08650657
0.22834982 -0.06571325 0.033508796 0.06805803 -0.069218524 -0.07514488 -0.06197309 0.04306152
-0.029911654 0.16497199 0.17584535 -0.008020369 -0.21154563 -0.19541109 0.11005738 0.015296523
-0.14824124 0.11793017 -0.20946829 0.056470834 0.16099603 -0.10369557 -0.062371593 0.022040356
-0.091718085 -0.052047804 -0.056495886 0.103813656 0.20687151 0.07522123 0.008477446 0.18040466
0.24893811 -0.066028215 0.1120312 0.094401956 0.06439056 0.10144859 0.103051074 0.03271845
-0.0033793703 -0.061223317 0.05319857 0.11556758 0.12536785 -0.016151939 0.1365883 -0.039279103
00000000: 4300 343e 1314 97bd dfef 1ebe e9be b93c
00000010: 6203 1bbd ae1e 6e3d 4ba1 403c 43a6 4a3e
00000020: 125d fcbd 9988 8dbd abd4 1c3d 1bdd e8bd
00000030: c2d7 d63b 4d7f 0cbe 8673 efbd 4693 6a3d
00000040: f18f 353e 8d3b 073d d309 05bd 0f08 de3d
00000050: 4cb8 503e 5aa2 63bd b688 8f3d 2285 9abd
00000060: 2614 f63d e332 a9bd 0084 a8bd 3d7e 12bd
00000070: 34b5 183e 3b48 09be 09eb 16be 95da f53c
00000080: 5d09 55bd 7ae8 5b3e ebf9 13bb b5c6 b53c
00000090: f997 b2bd c6c6 e43d 0b7a 3cbe 1533 d2bd
000000a0: c5d8 313e 9e8d debd 2c97 29bd 04a7 3abe
000000b0: 1af5 af3d db6f fa3c 2eaa ce3d 62a6 953d
000000c0: e39b e0bd ea1d 043d 081a 103e 5133 473c
000000d0: 9e2d 763c 6813 833d d042 97bc 865f 463d
000000e0: 57ef 383d b40f a33d 344e fb3d bc87 f4bd
000000f0: 04f6 f739 e524 c9bc 5b1e dbbc 0f29 0fbe
00000100: 8700 85bc 0a1d d63a f9a2 ef3c 32b9 1bbd
00000110: ae68 49bd 173a 94bd e206 4d3d a7f4 be3d
00000120: 5484 0e3a 6e04 a33d 4aab 2abe b63f 7b3c
00000130: 1c93 35be 3ac6 183e b01a 0c3e 36f7 283e
00000140: 8eb0 3b3d a0d0 0e3d 5ab0 533d b5cf 37be
00000150: d9c3 323b 4c9b 2c3d f74f e33d c409 a73b
00000160: e2c3 d6bd e79a d4bd f82b 083e 455c 00be
00000170: 729c e03c 5de2 2d3e 3ae9 ee3d bdc6 d9bd
00000180: d004 693d d420 753d 1340 703c 3803 cfbd
00000190: fe35 1dbe abc6 60be 94b9 88bd 3125 143d
000001a0: 8e0e e0ba 562a 08bd 8ae0 07be f2e7 833d
000001b0: bc59 c7bc 7732 febb 5793 23bd dd61 1abe
000001c0: b8da 843d 745a e9bc ec30 233e c0df d9bd
000001d0: 5995 d53b 5565 063e e1a8 56bd 8c1f 2d3d
000001e0: 32fd 55bd 617e 5f3d 4290 1b3e c564 a6bd
000001f0: 2c68 44bc 9df1 34bc e143 0cbe c2af 4dbe
00000200: e960 393d 771d ee3d 9be4 b1bc acb2 033e
00000210: 7fa6 c83d cdbf 473d 0dac bb3d edfd a83d
00000220: a698 b2bd 2250 4a3d 6c38 f03d 6d67 dc3d
00000230: d533 30be ab9c bfbd 4cba 14bd c130 dd3c
00000240: 83e7 7b3c ff41 8c3d 3fbe 09be b7a9 833c
00000250: 0a70 f1bd abfb 9cbb f3a7 9cbc b3e7 9bbc
00000260: 7f7f 04be 6388 07be d7c9 d3bd 28e9 0bbe
00000270: 4f98 ebbd 3850 1cbd f86c 223e 2326 c93d
00000280: bf00 8a3d d8b0 093e a1ae 203e 0bc5 41bc
00000290: cd3b d73d d18c 1cbd c1ea cebd 7c17 e3bd
000002a0: 1d38 393c 2489 99bd c11a 723c b434 3ebe
000002b0: 2cd3 ccbc 2b64 6fbe 20bc 633c b76a d43c
000002c0: 2229 9a3d e928 3dbd 9b01 123e 87f9 2e3d
000002d0: dfb8 b0bd 1605 bfbd a2fb 37bc ae1a a13c
000002e0: 961d 94bd 688c acbd 590a 3d3e da00 e63d
000002f0: 99d2 6a3d 369f fc3b 965b 993c 86d4 c9bc
00000300: c3d1 0abe d046 df3d 2c97 f03d 4374 d93b
00000310: a9d8 1f3d dc1e 123b 0081 a9bc 7089 16be
00000320: 7c0c d7bb d9bc 443d 0251 d4bd ad25 09be
00000330: 38c8 2d3c ee98 b5bc 03d7 d2b9 5b2a b1bd
00000340: 89d4 693e ab94 86bd 8540 093d 0262 8b3d
00000350: 71c2 8dbd 8fe5 99bd 7fd7 7dbd 4761 303d
00000360: 4909 f5bc 6bee 283e ce10 343e de67 03bc
00000370: 6b9f 58be d819 48be c365 e13d 459e 7a3c
00000380: 8dcc 17be 5f85 f13d db7e 56be f64d 673d
00000390: 25dc 243e 585e d4bd 5b79 7fbd fa8d b43c
000003a0: b1d6 bbbd 1430 55bd 3b68 67bd 419c d43d
000003b0: 20d6 533e 970d 9a3d fce4 0a3c 00bc 383e
000003c0: a2e9 7e3e cd39 87bd 9d70 e53d d055 c13d
000003d0: 33df 833d 47c4 cf3d 710c d33d c803 063d
000003e0: 6d78 5dbb 4dc5 7abd bee6 593d b2ae ec3d
000003f0: 6e60 003e 1251 84bc cedd 0b3e 20e3 20bd

blocks.0.attn.W_O f4 [2, 32, 64]
-0.07234773 0.057983454 0.106376596 0.069989644 0.15442671 -0.2303811 -0.14130257 -0.18296506
-0.076940134 -0.049347874 -0.11074707 -0.17625068 0.12406938 0.091187485 0.11166066 0.08995844
0.00537307 0.049635343 0.031118475 -0.037433766 -0.11783924 -0.043256726 0.11131186 -0.06599036
0.19393739 -0.01272088 -0.038407136 0.09112135 -0.073036835 0.009946506 0.12402757 0.045270454
0.09865329 0.117984936 0.24596485 -0.004630173 0.014348273 -0.028391311 -0.076695815 0.16064094
-0.14804257 0.051486976 0.20750698 0.05686886 -0.0518071 -0.07284317 -0.010330883 -0.042387847
-0.14838889 -0.2155844 -0.103474736 -0.020592345 0.06298183 -0.098184444 0.016409324 -0.06501693
-0.029570991 -0.15958057 0.06944378 -0.04198445 0.09205752 0.115997344 -0.15116085 -0.14561738
-0.16839561 -0.025852144 -0.0993768 -0.0680888 0.068497464 0.07286143 0.07312318 0.047325507
0.022867586 0.074331574 -0.00024718142 -0.042912923 0.0072046393 -0.12123945 0.05866112 0.09598766
0.018006366 0.2065369 -0.17140287 -0.07453413 -0.20175938 0.023305938 0.0067621837 -0.16105002
-0.20548561 0.016391966 -0.049758498 0.020732494 0.11752369 0.0025020775 0.02663022 -0.01236902
-0.14925984 -0.1761367 -0.002727448 -0.02711482 -0.05441954 0.0035046707 -0.012581526 -0.028743297
-0.06154994 0.021287736 0.09284419 -0.21538034 0.15348552 0.021130208 0.026858794 0.17141107
0.16582401 0.043541912 0.07580663 -0.07744189 0.079360165 -0.05180261 -0.13701302 -0.039405216
0.03074854 -0.059505094 0.08739799 -0.06707737 0.052101996 -0.03913018 0.0094618015 0.05364109
0.012478679 -0.0405092 -0.14176299 -0.22115894 0.060696136 0.0647104 -0.24339823 -0.02722897
0.13381867 -0.08550639 0.06559668 0.019933106 -0.009143886 -0.11550258 0.024038376 -0.06814028
0.0045348904 0.11119267 -0.046845183 0.019731885 0.060949247 -0.10371937 0.0029014393 0.013552547
0.05499984 0.078220874 -0.08101835 0.07053985 -0.058765553 -0.09218831 -0.12437782 0.033724777
0.020711927 0.033924475 -0.015674535 -0.020883316 -0.1445045 0.14821154 -0.08721561 0.17635195
0.009557792 0.082287855 -0.021815155 -0.053762726 0.1590235 0.20252939 -0.041083794 0.002458602
-0.26261058 0.034284487 0.07857196 -0.20800969 0.0233256 0.02673153 0.037969653 -0.010756322
-0.15754138 0.22035435 0.12193995 0.004827308 -0.07730893 -0.07322635 0.08426782 -0.040450722
-0.08925615 -0.07341296 0.08524567 -0.07236687 -0.016420435 0.0045748763 -0.09096346 -0.25587532
0.09155312 -0.043582696 0.042464655 0.060767762 0.021937037 -0.021019923 0.0112189315 0.007657114
0.026725022 -0.038785778 -0.03606344 -0.011405122 0.018535092 0.007027164 0.08110962 0.067638405
-0.17793441 0.029692752 -0.022435755 0.034602948 -0.2170654 0.09619409 -0.034927443 -0.030078257
0.030553969 0.028770534 0.11207797 0.03675799 -0.10966342 -0.08062722 -0.053831875 -0.14582421
0.039115466 0.08479003 0.045333292 0.018471638 -0.075980365 -0.10419877 0.17721808 -0.01978435
-0.017747547 0.118467696 -0.09517825 0.10002048 0.23287566 -0.025648747 -0.10497694 -0.12097686
-0.16157891 0.078276634 -0.10952614 0.03690112 -0.17095946 0.098779015 -0.073247425 -0.028471166
00000000: 0c2b 94bd 0f80 6d3d f9db d93d bb56 8f3d
00000010: 0922 1e3e 06e9 6bbe 9fb1 10be 315b 3bbe
00000020: ca92 9dbd ff20 4abd 5ccf e2bd 0f7b 34be
00000030: 1618 fe3d 81c0 ba3d 58ae e43d 213c b83d
00000040: 9410 b03b 6e4e 4b3d 2cec fe3c 2654 19bd
00000050: b355 f1bd f72d 31bd 79f7 e33d f425 87bd
00000060: 8697 463e 3d6b 50bc cd50 1dbd d59d ba3d
00000070: 5694 95bd abf6 223c 2b02 fe3d 836d 393d
00000080: bc0a ca3d 16a2 f13d 36de 7b3e b5b8 97bb
00000090: 0515 6b3c e594 e8bc b212 9dbd 0f7f 243e
000000a0: 7998 17be 02e4 523d b67c 543e 52ef 683d
000000b0: af33 54bd cd2e 95bd dd42 29bc e19e 2dbd
000000c0: 42f3 17be 28c2 5cbe 90ea d3bd 47b1 a8bc
000000d0: 9efc 803d ed14 c9bd d96c 863c 9927 85bd
000000e0: dd3e f2bc 1769 23be 8a38 8e3d e3f7 2bbd
000000f0: a788 bc3d 0490 ed3d e9c9 1abe b91c 15be
00000100: e66f 2cbe e0c7 d3bc 1086 cbbd 2472 8bbd
00000110: 6648 8c3d 6038 953d 9bc1 953d 64d8 413d
00000120: ce54 bb3c 273b 983d 2198 81b9 76c5 2fbd
00000130: e514 ec3b 644c f8bd a446 703d 2e95 c43d
00000140: 1682 933c 697e 533e 3c84 2fbe 5aa5 98bd
00000150: 039a 4ebe 18ec be3c 4f95 dd3b 4cea 24be
00000160: d26a 52be 7248 863c 91cf 4bbd 31d7 a93c
00000170: 43b0 f03d e5f9 233b 9e27 da3c 6ea7 4abc
00000180: 92d7 18be 2e5d 34be fcbe 32bb e61f debc
00000190: 06e7 5ebd 9eae 653b bf22 4ebc 1077 ebbc
000001a0: ca1b 7cbd 9e63 ae3c 1825 be3d aa8c 5cbe
000001b0: 4f2b 1d3e 4219 ad3c f906 dc3c 6286 2f3e
000001c0: c5cd 293e 0159 323d 8240 9b3d db99 9ebd
000001d0: 9587 a23d f92e 54bd 244d 0cbe 5d67 21bd
000001e0: 5de4 fb3c 9dbb 73bd b8fd b23d dc5f 89bd
000001f0: e768 553d f846 20bd ac05 1b3c c2b6 5b3d
00000200: 6073 4c3c faec 25bd 512a 11be 7d77 62be
00000210: 839c 783d e386 843d 633d 79be 4a0f dfbc
00000220: c307 093e f91d afbd 8d57 863d c14a a33c
00000230: 3dd0 15bc 9e8c ecbd 21ec c43c 228d 8bbd
00000240: 6b99 943b fcb8 e33d bce0 3fbd c3a4 a13c
00000250: eba5 793d d26a d4bd 1326 3e3b 810b 5e3c
00000260: 8347 613d 4432 a03d f3ec a5bd 3277 903d
00000270: 26b4 70bd 3acd bcbd ccb9 febd fe22 0a3d
00000280: 0fac a93c 64f4 0a3d e267 80bc 7d13 abbc
00000290: fdf8 13be c4c4 173e 199e b2bd 9b95 343e
000002a0: 4998 1c3c 8986 a83d b2b5 b2bc 4e36 5cbd
000002b0: 0ed7 223e dd63 4f3e 7b47 28bd 7f20 213b
000002c0: e574 86be e46d 0c3d 56ea a03d 7e00 55be
000002d0: 5415 bf3c 15fc da3c 1186 1b3d 493b 30bc
000002e0: 8752 21be 92a4 613e a7bb f93d 652e 9e3b
000002f0: 2554 9ebd b2f7 95bd 9b94 ac3d a8af 25bd
00000300: eecb b6bd 8959 96bd 4895 ae3d 1535 94bd
00000310: 2684 86bc d8e8 953b 0d4b babd 1702 83be
00000320: 3480 bb3d c583 32bd 6bef 2d3d 9ee7 783d
00000330: 4db5 b33c f931 acbc 9ccf 373c 87e8 fa3b
00000340: 6fee da3c d6dd 1ebd 42b7 13bd 8cdc 3abc
00000350: e8d6 973c 2044 e63b cd1c a63d 0186 8a3d
00000360: 7034 36be 373e f33c 30cb b7bc d2bb 0d3d
00000370: 6446 5ebe 6801 c53d 1410 0fbd ad66 f6bc
00000380: 514c fa3c 2fb0 eb3c 2289 e53d 8c8f 163d
00000390: 3797 e0bd e21f a5bd d07e 5cbd f152 15be
000003a0: 8a37 203d 65a6 ad3d 67af 393d d551 973c
000003b0: 989b 9bbd 2a66 d5bd a878 353e ca12 a2bc
000003c0: 4e63 91bc 319f f23d d0ec c2bd 8ad7 cc3d
000003d0: f576 6e3e 521d d2bc 26fe d6bd b7c2 f7bd
000003e0: f174 25be 804f a03d 3e4f e0bd a125 173d
000003f0: ff0f 2fbe a74c ca3d bf02 96bd 5d3c e9bc

blocks.0.attn.b_Q f4 [2, 32]
0.048000965 -0.0060381135 0.027410025 -0.048934072 -0.00228377 -0.0058888136 -0.0045056995 0.005391421
-5.0631726e-05 -0.031072298 0.016013762 0.026332594 0.0032139039 -0.0085711125 0.002120919 -0.0038371435
-0.0060535297 0.014848352 -0.0015032038 -0.004881116 -0.015413135 -0.009064431 -0.024540676 -0.0312792
0.025655838 -0.0027883048 0.0011564781 -0.009772493 0.03437298 0.0055917497 -0.0130889835 -0.0076772966
0.02068552 0.0007418142 0.0369604 -0.01830803 0.0030896692 -0.018306214 0.006071039 0.005606799
-0.019622158 -0.011580051 0.012154712 0.007308786 0.014233593 0.01902059 0.021311928 -0.0037014615
0.019795537 0.032371957 0.02082732 -0.003275765 0.0076174713 0.029658444 0.014586272 -0.017242711
-0.009248534 0.020142738 -0.023008268 -0.010334802 -0.019647442 -0.0077039246 0.0155268125 0.00951578
00000000: a99c 443d 5edb c5bb fd8a e03c 186f 48bd
00000010: 4dab 15bb f3f6 c0bb 8ca4 93bb 84aa b03b
00000020: 675d 54b8 558b febc 4b2f 833c 74b7 d73c
00000030: 5ca0 523b da6d 0cbc 1eff 0a3b 9678 7bbb
00000040: b05c c6bb 8146 733c 2607 c5ba c5f1 9fbb
00000050: 6087 7cbc fb82 14bc 8709 c9bc 9e1e 00bd
00000060: 312c d23c febb 36bb f794 973a ce1c 20bc
00000070: afca 0c3d ff3a b73b 2d73 56bc d591 fbbb
00000080: ae74 a93c 4f76 423a ca63 173d b9fa 95bc
00000090: 0c7c 4a3b eaf6 95bc 91ef c63b 3db9 b73b
000000a0: a6be a0bc 41ba 3dbc 8f24 473c 8a7e ef3b
000000b0: 0434 693c 12d1 9b3c 5a96 ae3c 3894 72bb
000000c0: 402a a23c 7598 043d 0e9e aa3c 38ae 56bb
000000d0: fb9b f93b 44f6 f23c 42fb 6e3c 9640 8dbc
000000e0: 2a87 17bc 6202 a53c d67b bcbc 4d53 29bc
000000f0: acf3 a0bc 3471 fcbb 2c64 7e3c 13e8 1b3c

blocks.0.attn.b_K f4 [2, 32]
4.2730342e-05 -0.00013604708 -2.0294236e-05 -0.0008350266 -0.0017622762 0.0006760461 -0.0005174374 -2.1025296e-06
-0.00076324085 -0.00082056894 -0.0005303575 0.0005218479 -0.00073647674 -0.001922324 -0.001944126 0.00047420734
-0.0007629085 0.00060628384 0.00010623508 0.00077562686 0.0013302944 0.0008100689 -0.00016208267 0.0002944889
-3.6809593e-05 0.0005291848 0.0013308334 -0.00033389928 -0.0009194987 0.0024925102 -0.0013535058 0.0007739075
-0.0014656745 -0.0029237203 0.00105919 -0.0022146634 0.0026942382 0.002393464 -0.0021963085 -0.0029539228
-0.0077005387 0.005199924 -0.0059929085 -0.002549576 0.0017451459 -0.004598113 0.00085349963 0.0002497293
0.0013236819 0.004188589 -0.0029312603 -0.0027225951 -0.0022563452 0.0029396832 -0.00080969883 -0.0042007486
-0.0029124338 -0.0036160813 -0.0050693084 -0.001167985 -0.011047061 9.784205e-05 0.007965764 0.0036075667
00000000: 5b39 3338 dca7 0eb9 8a3d aab7 b0e5 5aba
00000010: 2dfc e6ba b038 313a a3a4 07ba 2f19 0db6
00000020: 3a14 48ba 731b 57ba b007 0bba 9fcc 083a
00000030: 1e10 41ba 7df6 fbba 0bd2 feba 089f f839
00000040: ecfd 47ba 05ef 1e3a 86ca de38 7053 4b3a
00000050: 465d ae3a ce5a 543a bcf4 29b9 a265 9a39
00000060: 0064 1ab8 feb8 0a3a 5c6f ae3a 340f afb9
00000070: 830a 71ba 6259 233b 1e68 b1ba 0ee0 4a3a
00000080: e01b c0ba e39b 3fbb 85d4 8a3a e323 11bb
00000090: d191 303b aadb 1c3b f1ef 0fbb 9a96 41bb
000000a0: cd54 fcbb 2064 aa3b 2960 c4bb ca16 27bb
000000b0: 61bd e43a c4ab 96bb 64bd 5f3a 19ee 8239
000000c0: 657f ad3a 6e40 893b 631a 40bb 916d 32bb
000000d0: 31df 13bb b3a7 403b f841 54ba 6fa6 89bb
000000e0: 88de 3ebb c7fb 6cbb 711c a6bb 1317 99ba
000000f0: bbfe 34bc 8d30 cd38 d682 023c ed6c 6c3b

blocks.0.attn.b_V f4 [2, 32]
0.00808974 0.00415284 0.009345663 -0.005166632 0.005396505 -0.024199056 -0.012977478 -0.0034956303
-0.004782459 -0.0058741192 0.01716113 -0.0014765525 0.014083351 0.01605016 0.0018473964 0.009731307
0.0077222027 -0.0011512936 0.024706388 -0.025367172 -0.0029302023 -0.008648875 0.022808142 -0.0010959131
0.0032353362 0.00533495 0.00036393385 0.007370418 0.0067538098 0.008540102 -0.012025297 0.0031440773
0.012359219 0.0036331709 0.0013723059 0.013624644 -0.014467667 0.0025820602 0.010479569 -0.0084925
0.0011220599 -0.020579277 -0.0069602714 0.0031312937 -0.0012779557 -0.006735727 0.0073002866 0.005380112
0.0022546053 -0.0067970078 -0.008485031 -0.022793517 -0.0004691191 -0.0069641364 0.017044617 0.0050323703
-0.011613916 -0.0046517374 -0.0025100121 -0.008941132 -0.008882165 -0.018056333 0.012098312 -0.001793613
00000000: d48a 043c 8c14 883b 8d1e 193c da4c a9bb
00000010: 2ad5 b03b 193d c6bc 7d9f 54bc f216 65bb
00000020: 2cb6 9cbb af7b c0bb 8095 8c3c e188 c1ba
00000030: dbbd 663c a07b 833c 5624 f23a 0f70 1f3c
00000040: 880a fd3b 01e7 96ba 0d65 ca3c d1ce cfbc
00000050: a308 40bb 03b4 0dbc 24d8 ba3c bea4 8fba
00000060: ef07 543b ced0 ae3b 60ce be39 8c83 f13b
00000070: 104f dd3b c9eb 0b3c c005 45bc dd0c 4e3b
00000080: 527e 4a3c 7e1a 6e3b f2de b33a e639 5f3c
00000090: cb09 6dbc c837 293b 80b2 2b3c 2024 0bbc
000000a0: 1512 933a df95 a8bc fd12 e4bb 6436 4d3b
000000b0: 1481 a7ba 60b7 dcbb 3e37 ef3b a74b b03b
000000c0: 00c2 133b 6fb9 debb cd04 0bbc 78b9 babc
000000d0: 1af4 f5b9 6933 e4bb 27a1 8b3c 95e6 a43b
000000e0: 4b48 3ebc 9a6d 98bb 047f 24bb d37d 12bc
000000f0: 8086 11bc e0ea 93bc 0038 463c aa17 ebba

blocks.0.attn.b_O f4 [64]
-0.016597824 0.00124948 -0.010377846 -0.0029708054 -0.0112979235 -0.017474417 -0.026091367 0.0017895068
0.0021707402 0.013843911 -0.016396033 0.0014772922 0.008136475 0.011148283 -0.01767991 -0.014697148
0.0041413065 0.014629425 -0.008176345 0.0043290234 -0.009893873 0.00066610513 0.0022208083 -0.0168075
-0.011096336 0.010667712 0.020224731 0.008438094 -0.04078272 -0.0035231006 0.0029534244 0.0004422096
-0.00045990464 0.015732823 0.019191766 0.0039076516 0.0002664479 0.002726461 -0.006467797 0.050643224
0.011973556 -0.0072221085 0.021396946 0.027790403 -0.008149642 0.010442298 -0.007073716 0.036692776
-0.009881762 0.009778737 0.0063025444 -0.015946133 -0.012124678 -0.00420042 -0.0037381079 -0.012104496
-0.0004124428 -0.00962295 0.026875945 0.0065816017 0.0005522929 0.0006347427 -0.004244718 -0.010849473
00000000: 29f8 87bc 97c5 a33a d707 2abc d8b1 42bb
00000010: ed1a 39bc 8226 8fbc 90bd d5bc e28d ea3a
00000020: fa42 0e3b 92d1 623c f950 86bc b3a1 c13a
00000030: da4e 053c 4aa7 363c 75d5 90bc 4fcc 70bc
00000040: ccb3 873b 41b0 6f3c 14f6 05bc 7bda 8d3b
00000050: e919 22bc 8f9d 2e3a fb8a 113b e2af 89bc
00000060: 68cd 35bc a1c7 2e3c 56ae a53c ee3f 0a3c
00000070: c80b 27bd d2e3 66bb 3d8e 413b 5ed8 e739
00000080: 5b1f f1b9 1fe2 803c 0d38 9d3c c20b 803b
00000090: 08b2 8b39 6dae 323b d0ef d3bb 456f 4f3d
000000a0: bc2c 443c 70a7 ecbb a648 af3c b3a8 e33c
000000b0: 1386 05bc 2c16 2b3c a1ca e7bb 2a4b 163d
000000c0: 1de7 21bc ff36 203c 9385 ce3b 77a1 82bc
000000d0: 96a6 46bc ada3 89bb 0bfb 74bb f051 46bc
000000e0: 233d d8b9 94a9 1dbc f12a dc3c 7aaa d73b
000000f0: c0c7 103a dd64 263a 4617 8bbb fdc1 31bc

blocks.1.ln1.w f4 [64]
1.0144533 1.0261086 1.0155191 0.9286769 0.9784286 0.93451273 0.99171495 1.015025
1.0495604 0.9680406 0.9636601 0.97566235 0.99986386 0.9471242 1.0482428 0.972234
0.9680852 1.0152991 0.97475475 1.0073214 0.9719207 1.0310955 0.9938487 1.0020462
0.99098295 0.9912073 0.9521002 1.0124222 0.9970448 0.9498294 0.9527755 1.0307047
0.9800539 0.94960696 1.0265623 1.0333575 1.0214847 1.0299419 1.0305752 0.966509
0.96870553 0.9920597 0.9993818 1.025693 1.0319629 1.0825336 0.98680377 0.9695888
1.0066816 0.971255 1.0220085 1.0247476 1.015544 1.0000682 0.97432995 0.9642379
1.0246371 0.9751539 1.0419586 1.0044607 0.9751848 1.025861 0.9917573 0.9906268
00000000: 9bd9 813f 8757 833f 88fc 813f c5bd 6d3f
00000010: 4c7a 7a3f 3a3c 6f3f 08e1 7d3f 57ec 813f
00000020: ff57 863f 82d1 773f 6eb2 763f 02c5 793f
00000030: 14f7 7f3f bb76 723f d22c 863f 54e4 783f
00000040: 6fd4 773f 52f5 813f 8789 793f e8ef 803f
00000050: cccf 783f f0fa 833f de6c 7e3f 0d43 803f
00000060: 0fb1 7d3f c3bf 7d3f d7bc 733f 0d97 813f
00000070: 543e 7f3f 0528 733f 18e9 733f 22ee 833f
00000080: d0e4 7a3f 7119 733f 6566 833f 0f45 843f
00000090: 03c0 823f 23d5 833f e3e9 833f 226d 773f
000000a0: 16fd 773f a0f7 7d3f 7cd7 7f3f e949 833f
000000b0: 5c17 843f 7690 8a3f 2c9f 7c3f f936 783f
000000c0: f1da 803f 2ba4 783f 2dd1 823f ee2a 833f
000000d0: 59fd 813f 3c02 803f b06d 793f 4cd8 763f
000000e0: 4f27 833f b0a3 793f e65e 853f 2b92 803f
000000f0: b6a5 793f 6a4f 833f cee3 7d3f b899 7d3f
