models/palindrome_H1_0_zero.pt (torch, 44651 bytes, 26 tensors)

embed.W_E f4 [33, 28]
0.21783262 0.19945681 0.19650805 -0.31661913 0.075415805 -0.23667447 -0.06574904 -0.21036245
-0.18692957 0.21260002 -0.09165326 -0.15387163 -0.08199065 -0.09334966 -0.047158048 0.09527047
0.30072206 -0.072974265 -0.010655634 0.09171667 -0.053592447 0.09303597 0.16653551 0.22136329
0.1741056 0.32592574 0.09602379 0.2403835 -0.102520205 0.058782678 0.079195976 0.07749963
-0.2509772 -0.21382134 0.04408135 0.20224158 0.0467395 0.03125945 -0.29568836 -0.060389902
-0.20161393 0.11543154 0.07956941 -0.007107214 -0.29086804 0.30739278 -0.32882932 -0.017963596
-0.1281529 -0.043444585 -0.09645706 0.03334374 -0.05336155 0.21990535 -0.20985094 -0.10037566
-0.22066337 0.014767085 0.044516403 0.045938373 0.10529258 0.2772088 -0.063882835 0.054811116
0.17889583 -0.07817516 0.37065727 0.048541255 0.13333891 -0.097219616 -0.05854265 0.26030815
-0.082903996 -0.06226181 0.15727872 0.18089107 0.03668356 -0.03410117 -0.20837876 -0.11438752
-0.09219477 -0.108931646 -0.34403935 0.014630009 0.13772328 0.07475505 0.29806486 -0.16405587
0.17954306 -0.10638159 -0.19607675 0.17892668 -0.3487143 -0.08051774 0.16739136 0.03826535
-0.21106403 0.076970115 0.26316908 -0.035761654 0.20044988 -0.12560669 0.07632795 0.07664471
0.056892484 0.070207894 -0.11041806 0.016931282 0.030581534 0.11704078 -0.088393666 0.039062947
-0.2613621 -0.068978414 -0.0032153577 0.040560246 0.030508578 -0.060258258 0.055056233 0.1295824
0.022184856 0.03512829 -0.0056347223 0.17923981 0.17119263 0.055147555 0.11983257 0.14852734
0.29772264 0.038830187 -0.1938642 -0.17026174 0.11452264 0.17439808 0.119881995 -0.010663748
0.2592104 -0.07124721 -0.3323804 0.17628774 0.055929378 0.14854166 -0.21158864 0.22931972
-0.076796405 0.23101161 0.19908889 0.17200764 0.19297412 -0.15544918 -0.06778137 -0.06954424
-0.062255338 0.07606874 0.024895666 0.28363332 -0.41262582 -0.07754132 -0.06860747 0.102404624
-0.23880535 -0.0065085627 0.025851164 0.071157396 -0.026349178 -0.17895241 0.008065483 -0.08158902
-0.25478336 0.27777746 0.16368999 0.08686974 -0.15090379 0.055703353 0.017987499 0.19767958
0.044189375 0.05631939 -0.0017595524 0.06200073 -0.022063825 -0.12094498 -0.2113869 -0.19349249
0.04600618 -0.35135922 -0.29009625 -0.093048096 0.26409277 -0.054318313 0.20629454 0.062469564
0.06274693 -0.086894944 -0.055297595 -0.10318466 -0.09363778 -0.014710467 0.06845951 0.12949231
0.062399004 0.32098448 0.14570749 -0.045363877 -0.018993972 0.2636312 0.13756333 0.03438463
-0.029666869 -0.20355691 -0.02095043 -0.16792987 0.022246981 0.006295228 0.000544926 -0.25794137
-0.030782681 0.17407323 -0.3076882 0.04642758 0.09059672 -0.19120647 0.14705338 0.06276489
0.07680607 0.23592263 -0.02387101 -0.046516344 -0.087123714 0.029917441 0.051172618 0.2538864
-0.13954936 -0.12283814 -0.2808403 -0.23813994 -0.08970218 -0.06901361 0.16993017 0.18375349
-0.2529648 -0.007869634 -0.07911459 -0.009108879 -0.1419775 0.025331663 0.046997257 0.16789113
0.09146309 -0.009182359 0.08865407 0.12234368 0.0742373 -0.078016676 -0.0052471114 -0.19695295
00000000: 840f 5f3e 683e 4c3e 6839 493e e71b a2be
00000010: 9a73 9a3d cb5a 72be 6fa7 86bd 4169 57be
00000020: 776a 3fbe d2b3 593e b4b4 bbbd 8690 1dbe
00000030: b7ea a7bd 1b2e bfbd cc28 41bd 2a1d c33d
00000040: 3ef8 993e 8873 95bd f894 2ebc f3d5 bb3d
00000050: c183 5bbd a589 be3d 4988 2a3e 0fad 623e
00000060: bd48 323e bddf a63e 1fa8 c43d 1827 763e
00000070: 1df6 d1bd 1bc6 703d 8031 a23d 20b8 9e3d
00000080: 1580 80be fbf3 5abe a58e 343d 6b18 4f3e
00000090: eb71 3f3d e909 003d 7764 97be 675b 77bd
000000a0: e273 4ebe 5f67 ec3d 49f5 a23d a2e3 e8bb
000000b0: a8ec 94be 9662 9d3e 515c a8be 6428 93bc
000000c0: 843a 03be f3f2 31bd 478b c5bd 7293 083d
000000d0: a491 5abd de2e 613e 2ae3 56be c191 cdbd
000000e0: 94f5 61be a5f1 713c d556 363d e029 3c3d
000000f0: a3a3 d73d 50ee 8d3e 01d5 82bd 9f81 603d
00000100: 7830 373e 4c1a a0bd cac6 bd3e 32d3 463d
00000110: ff89 083e 141b c7bd 6bca 6fbd 1c47 853e
00000120: 92c9 a9bd 3d06 7fbd ac0d 213e 823b 393e
00000130: 8041 163d abad 0bbd 3e61 55be 0144 eabd
00000140: 9dd0 bcbd 8e17 dfbd ed25 b0be b5b2 6f3c
00000150: 5507 0d3e 2d19 993d f59b 983e 43fe 27be
00000160: 23da 373e 97de d9bd 58c8 48be 8e38 373e
00000170: ae8a b2be 7ce6 a4bd a468 2b3e 21bc 1c3d
00000180: 2b21 58be 82a2 9d3d 19be 863e d07a 12bd
00000190: bc42 4d3e 0a9f 00be d451 9c3d e7f7 9c3d
000001a0: 1808 693d 28c9 8f3d dd22 e2bd 79b3 8a3c
000001b0: 2086 fa3c 14b3 ef3d bd07 b5bd 7800 203d
000001c0: 41d1 85be 8e44 8dbd c0b8 52bb 8022 263d
000001d0: 20ed f93c 5dd1 76bd a582 613d 40b1 043e
000001e0: 04bd b53c afe2 0f3d 7aa3 b8bb a48a 373e
000001f0: 1f4d 2f3e 67e2 613d c76a f53d 8d17 183e
00000200: 1a6f 983e 670c 1f3d 5684 46be 1859 2ebe
00000210: d98a ea3d 6995 323e b184 f53d 00b7 2ebc
00000220: 3ab7 843e 0fea 91bd c42d aabe c684 343e
00000230: 3416 653d 4e1b 183e b1aa 58be cad2 6a3e
00000240: 6f47 9dbd 4f8e 6c3e f5dd 4b3e c522 303e
00000250: 029b 453e 122e 1fbe f5d0 8abd 366d 8ebd
00000260: 74ff 7ebd edc9 9b3d fff1 cb3c 6338 913e
00000270: b143 d3be fccd 9ebd 1382 8cbd 84b9 d13d
00000280: 6489 74be c845 d5bb d2c5 d33c f8ba 913d
00000290: 3bda d7bc 4d3f 37be 1625 043c 2518 a7bd
000002a0: f772 82be d938 8e3e 599e 273e c3e8 b13d
000002b0: 8686 1abe 3329 643d 855a 933c 846c 4a3e
000002c0: ebff 343d 29af 663d c8a0 e6ba 7af4 7d3d
000002d0: 32bf b4bc 00b2 f7bd cf75 58be e522 46be
000002e0: fa70 3c3d 5be5 b3be 7f87 94be 0090 bebd
000002f0: 2b37 873e e17c 5ebd e03e 533e 16e0 7f3d
00000300: 7681 803d faf5 b1bd bb7f 62bd 7b52 d3bd
00000310: 2ac5 bfbd 2c04 71bc 8034 8c3d a299 043e
00000320: 1996 7f3d 1458 a43e 5834 153e 79cf 39bd
00000330: 3f99 9bbc abfa 863e 67dd 0c3e e6d6 0c3d
00000340: ef07 f3bc 3971 50be 3ca0 abbc cff5 2bbe
00000350: 4d3f b63c 3348 ce3b 5dd9 0e3a e410 84be
00000360: f62b fcbc 4140 323e 4f89 9dbe d92a 3e3d
00000370: c68a b93d a1cb 43be 2995 163e e18a 803d
00000380: 804c 9d3d b495 713e 238d c3bc ec87 3ebd
00000390: eb6d b2bd 6c15 f53c 619a 513d 66fd 813e
000003a0: 07e6 0ebe 9092 fbbd 4dca 8fbe f5da 73be
000003b0: c7b5 b7bd 0257 8dbd 2d02 2e3e e029 3c3e
000003c0: 9a84 81be a3ef 00bc d506 a2bd 683d 15bc
000003d0: 8d62 11be 5984 cf3c 3280 403d a7eb 2b3e
000003e0: 0051 bb3d 9b71 16bc 4490 b53d 538f fa3d
000003f0: ba09 983d 35c7 9fbd f6ef abbb 09ae 49be

pos_embed.W_pos f4 [22, 28]
0.08880537 -0.025475359 0.0532225 -0.020771684 0.08892479 -0.0038850934 0.049716596 0.08276185
-0.02051343 -0.059527952 0.065991856 0.12496669 0.023927845 -0.18031673 -0.12137321 -0.035482492
-0.06335861 0.16835627 -0.16166945 -0.15081215 -0.10693843 -0.15388346 -0.06179719 -0.06947877
-0.0070808697 0.00779506 -0.2180217 0.08355889 -0.03205705 0.084859595 0.061533574 -0.25407666
-0.13117966 0.012091885 0.04764612 0.109450825 0.13238147 -0.28091064 0.09949397 -0.36206606
-0.15205537 0.28291962 -0.33552945 -0.099738434 0.02379212 0.020708561 0.07884406 -0.20903851
-0.23245016 -0.16632758 -0.08303303 0.27433664 -0.13510714 -0.025030509 -0.032908976 -0.13811933
0.124229 -0.21658805 0.11971892 0.06729742 -0.29089865 0.116565704 0.54586786 -0.016788973
-0.042470597 -0.16066891 -0.017270416 0.0550897 0.051918138 -0.032810844 -0.03910432 0.26937926
0.11278955 -0.11156891 -0.13119753 -0.27260247 -0.009131598 -0.20169088 -0.13737455 0.07322608
0.008938876 -0.018710272 0.057623256 -0.06647233 -0.08569849 0.19708452 -0.2778917 -7.917137e-05
-0.0041695745 0.10669009 -0.07743041 0.16075134 0.18550262 0.18446825 0.031882502 -0.00070939603
-0.060861748 -0.0031483627 -0.04580536 -0.062770404 -0.094206765 -0.16521166 0.23910488 -0.18319055
0.47343698 0.16475138 -0.08382916 -0.31531224 -0.17846458 0.26695314 -0.008058742 0.04548656
0.111958124 -0.07135139 0.41421556 0.14441407 -0.03379585 -0.00628345 0.11904289 -0.006668773
0.025282992 0.06173613 -0.12418198 0.042348523 0.14381057 0.06106206 0.14561418 0.0887828
-0.23486672 -0.34679574 0.29724136 -0.21333109 0.038735185 -0.15461405 -0.08350572 0.1332305
0.28120396 0.08048247 -0.0037312345 0.21655501 0.2344764 -0.06138602 0.043352623 0.03252647
0.005063804 -0.09204328 0.1302578 -0.15647241 0.0036246278 0.16500306 0.061621543 0.24773692
-0.10038801 -0.19292282 -0.021476103 0.15600777 -0.010130131 -0.07692393 -0.111467555 -0.21686798
0.067860395 -0.17455891 0.07124701 0.25219032 0.04947607 0.023657069 0.07583437 -0.017013546
-0.017289711 -0.26472422 0.013017052 0.006128122 0.009618733 -0.19176959 0.06385807 -0.050399423
0.06504149 0.18070397 0.042974133 0.0648708 -0.05470649 -0.105321385 0.3147933 0.26540488
0.08267202 0.010556449 -0.06081575 -0.04340612 -0.09287533 -0.03616696 0.12805921 -0.078988805
-0.13864405 -0.053512838 -0.038074013 0.0017361079 -0.13627069 -0.18698181 0.0134098735 -0.027074425
0.008875661 -0.114677176 -0.2680895 0.07043491 0.0039962777 0.19599426 0.01415856 0.0026667987
0.06732794 -0.012417533 0.11406205 0.17606772 -0.097638406 0.09957147 0.11806494 0.105804406
0.028367147 -0.14668609 0.020300373 -0.0905683 0.032131482 0.01635705 0.05973813 0.092179745
-0.042076733 -0.32810166 -0.08150754 0.09440781 -0.048197392 -0.12061076 0.009384874 -0.16249256
0.049147166 0.0019514682 -0.07485156 -0.18381688 -0.094642274 -0.1882664 0.028679691 0.093014486
0.022062432 0.100021504 0.034166068 0.024712104 0.20614222 -0.046651594 0.26398724 -0.0071590706
0.16275857 -0.2672622 0.07458147 -0.032994587 -0.059404615 0.018376159 0.03576847 0.10829815
00000000: 97df b53d b3b1 d0bc d6ff 593d 6129 aabc
00000010: 331e b63d 0d9d 7ebb a1a3 4b3d 0b7f a93d
00000020: c80b a8bc 95d3 73bd bd26 873d 89ee ff3d
00000030: 5404 c43c f3a4 38be 8492 f8bd 1756 11bd
00000040: 29c2 81bd 9665 2c3e ad8c 25be 806e 1abe
00000050: 8902 dbbd a093 1dbe 0d1f 7dbd e34a 8ebd
00000060: a406 e8bb b46d ff3b 1541 5fbe ec20 ab3d
00000070: 414e 03bd deca ad3d a10a 7c3d 5616 82be
00000080: f653 06be 0b1d 463c 9428 433d c127 e03d
00000090: 028f 073e 85d3 8fbe 7fc3 cb3d b960 b9be
000000a0: 67b4 1bbe d7da 903e 84ca abbe aa43 ccbd
000000b0: b1e7 c23c 00a5 a93c ff78 a13d 310e 56be
000000c0: 6a07 6ebe c751 2abe 390d aabd da75 8c3e
000000d0: 8759 0abe c80c cdbc 90cb 06bd 276f 0dbe
000000e0: c66b fe3d 42c9 5dbe 312f f53d 3bd3 893d
000000f0: abf0 94be 00ba ee3d ffbd 0b3f 0789 89bc
00000100: a6f5 2dbd 6486 24be b07a 8dbc bda5 613d
00000110: 1da8 543d aa64 06bd da2b 20bd 14ec 893e
00000120: 35fe e63d 3e7e e4bd a558 06be 8d92 8bbe
00000130: b39c 15bc 0e88 4ebe eaab 0cbe 8ef7 953d
00000140: 5d74 123c 4946 99bc 5d06 6c3d a522 88bd
00000150: b182 afbd 86d0 493e d247 8ebe ce08 a6b8
00000160: eda0 88bb 5580 da3d d693 9ebd 009c 243e
00000170: 66f4 3d3e 3fe5 3c3e 3a97 023d c3f6 39ba
00000180: 2b4a 79bd c354 4ebb 679e 3bbd c58d 80bd
00000190: 7aef c0bd 3f2d 29be e9d7 743e 4e96 3bbe
000001a0: 5566 f23e 96b4 283e 9fae abbd 9b70 a1be
000001b0: 6bbf 36be 15ae 883e d008 04bc 1d50 3a3d
000001c0: 4d4a e53d ad20 92bd 1014 d43e 48e1 133e
000001d0: 846d 0abd 66e5 cdbb c2cc f33d b985 dabb
000001e0: 471e cf3c 06df 7c3d 1f53 febd a575 2d3d
000001f0: 1443 133e 361c 7a3d e21b 153e c2d3 b53d
00000200: e780 70be 368f b1be 0530 983e 7773 5abe
00000210: c9a8 1e3d 2553 1ebe 0c05 abbd 946d 083e
00000220: f7f9 8f3e fed3 a43d ba87 74bb 99c0 5d3e
00000230: 951a 703e e86f 7bbd 8592 313d 7a3a 053d
00000240: 44ee a53b 3081 bcbd 4d62 053e 4e3a 20be
00000250: 2a8b 6d3b 90f6 283e df66 7c3d bfae 7d3e
00000260: 3b98 cdbd 8f8d 45be a7ee afbc 80c0 1f3e
00000270: d9f8 25bc 4b8a 9dbd 1a49 e4bd a412 5ebe
00000280: 64fa 8a3d 92bf 32be f4e9 913d 171f 813e
00000290: 6ba7 4a3d 78cc c13c 0d4f 9b3d fe5f 8bbc
000002a0: 27a3 8dbc ef89 87be 7945 553c 6ace c83b
000002b0: e497 1d3c 3f5f 44be 05c8 823d a06f 4ebd
000002c0: 7934 853d 760a 393e a505 303d fbda 843d
000002d0: ea13 60bd bdb2 d7bd 962c a13e 26e3 873e
000002e0: f34f a93d f5f4 2c3c f019 79bd 9eca 31bd
000002f0: 6c35 bebd ce23 14bd f421 033e e2c4 a1bd
00000300: b5f8 0dbe 4730 5bbd 7ff3 1bbd 1d8e e33a
00000310: 8b8a 0bbe 2978 3fbe 16b5 5b3c 2fcb ddbc
00000320: 386b 113c dedb eabd 0743 89be 2e40 903d
00000330: 35f3 823b b8b2 483e 4ef9 673c 75c5 2e3b
00000340: 3be3 893d e972 4bbc 5d99 e93d 194b 343e
00000350: a5f6 c7bd 20ec cb3d 08cc f13d fbaf d83d
00000360: 3862 e83c e134 16be f84c a63c df7b b9bd
00000370: 4d9c 033d 38ff 853c f8af 743d bcc8 bc3d
00000380: a758 2cbd f1fc a7be 6ded a6bd e258 c13d
00000390: a16a 45bd c602 f7bd 04c3 193c 7364 26be
000003a0: 8a4e 493d 68c8 ff3a c64b 99bd 7e3a 3cbe
000003b0: cfd3 c1bd e8c8 40be acf1 ea3c 617e be3d
000003c0: 46bc b43c 13d8 cc3d b8f1 0b3d 0a71 ca3c
000003d0: f216 533e be15 3fbd 5629 873e a396 eabb
000003e0: 2faa 263e 97d6 88be 2bbe 983d 5525 07bd
000003f0: 4152 73bd 9989 963c f681 123d 6ccb dd3d

blocks.0.ln1.w f4 [28]
1.0792089 1.0584062 1.0508231 1.0418216 1.03158 1.0991012 1.0617615 1.058802
1.0693442 1.1772829 1.2701131 1.1465131 1.0513238 1.1301813 1.1678603 1.0884058
1.1254683 1.0788668 1.049415 1.0285746 1.0752355 0.9942203 1.1595011 1.0176997
1.1092049 1.1094278 1.1315845 1.0073088
00000000: 8423 8a3f db79 873f 5f81 863f 695a 853f
00000010: d00a 843f 59af 8c3f cde7 873f d386 873f
00000020: 45e0 883f 35b1 963f 1193 a23f f1c0 923f
00000030: c791 863f c8a9 903f 727c 953f e250 8b3f
00000040: 580f 903f 4f18 8a3f 3b53 863f 55a8 833f
00000050: 51a1 893f 3985 7e3f 886a 943f fc43 823f
00000060: 6dfa 8d3f bb01 8e3f c3d7 903f 7fef 803f

blocks.0.ln1.b f4 [28]
0.040719815 -0.010058909 0.02227836 -0.0069390177 0.0014899997 -0.0113881305 -0.016770447 0.01248826
-0.015624893 0.01809157 0.052637525 0.015128553 -0.06719062 -0.015518351 0.023725785 0.023451459
0.0018739551 -0.037668206 0.001222062 0.008033038 -0.02098204 -0.031045362 -0.027445037 -0.016162727
-0.012985694 -0.009517296 0.025133764 0.010684098
00000000: d2c9 263d 1fce 24bc 1b81 b63c b360 e3bb
00000010: 184c c33a 4895 3abc 2d62 89bc 8f9b 4c3c
00000020: 8dff 7fbc c634 943c 729a 573d c0dd 773c
00000030: 3c9b 89bd af40 7ebc 945c c23c 461d c03c
00000040: 809f f53a fa49 1abd 992d a03a 019d 033c
00000050: 87e2 abbc d852 febc 6ad4 e0bc b267 84bc
00000060: f3c1 54bc 6fee 1bbc 53e5 cd3c 5b0c 2f3c

blocks.0.attn.W_Q f4 [2, 28, 14]
0.051397964 -0.020137839 0.04689339 0.0707399 0.13742284 0.22240585 -0.03860276 -0.007291765
0.09068628 -0.08192885 0.036054574 -0.28140685 0.13422462 -0.22487253 -0.1229497 0.16416293
-0.15767364 -0.079733424 0.12639603 0.3591312 0.14232555 0.10443508 0.21054326 -0.13606223
0.09209782 0.25724384 0.12780593 -0.065706804 0.07406681 -0.13032511 0.09074869 -0.188633
0.32611817 0.16512522 -0.029785162 0.11592778 -0.062456924 -0.27673057 0.102591656 -0.07150881
0.053460788 0.38182962 0.07033342 0.12769707 0.1681985 0.2001903 -0.15812387 0.19621375
-0.05863074 -0.16168103 0.09243072 0.065224335 -0.29194003 0.024192495 0.12521213 0.06716933
-0.24573268 -0.08440518 -0.14258873 0.1854165 0.31066 -0.14022177 0.39626417 -0.11749393
-0.07529132 0.096473105 0.18098958 0.2322706 0.049601946 0.37087873 -0.10635154 -0.04445844
-0.06826937 0.2945342 -0.24821596 0.35260043 0.062248737 -0.09825522 0.10757313 0.28138205
-0.29922372 0.11895042 0.021628711 -0.076788336 0.4002221 -0.11435071 0.20145623 0.09529596
-0.08868821 0.079728015 -0.37039462 -0.26929477 0.12741373 -0.076419756 0.27250785 -0.041180156
-0.18673599 0.093743525 0.14007854 0.12546377 -0.086540826 -0.28522232 0.1779581 0.1446381
-0.3820286 0.08898173 0.09041656 0.24477579 -0.04072907 0.2938932 -0.3039756 -0.2622241
0.08338805 0.31714454 0.09109195 0.031527523 -0.18819244 0.008873299 -0.08676499 -0.07805845
-0.37454015 0.057667293 0.07632949 0.26896796 -0.09112362 -0.19146344 -0.02316328 -0.1623203
-0.28994635 0.14400928 0.023656454 0.034125444 -0.31077152 -0.0029829438 0.3186071 -0.23654509
-0.05045321 -0.069284834 -0.55076295 0.04288534 0.1410311 -0.45104048 -0.40371925 0.12396066
-0.04400662 0.119719945 0.33558336 0.07994242 -0.30897188 0.068484835 -0.07919995 0.02662172
0.20560357 -0.07656542 -0.060551334 0.013428831 -0.14033793 0.24882914 0.05953213 0.10121534
-0.374745 0.14042255 -0.29080436 0.059248164 0.17745093 0.16292989 -0.19353257 0.3807584
-0.0032602695 -0.20407766 0.30531982 -0.07082776 -0.14417768 -0.20536129 0.080320455 -0.013212803
0.10993679 0.029353412 0.30891597 0.41065842 0.13486344 0.00860806 0.37904212 -0.1902656
-0.066940516 0.060780734 0.046830215 -0.15914364 -0.035325896 0.5511607 -0.029646974 0.005875175
-0.056987885 -0.24159376 0.38176405 -0.31003726 -0.33175978 0.19972092 0.07713321 0.1655126
0.18013221 -0.20132051 -0.16259235 0.10654606 0.14974101 0.120903306 0.16814665 -0.019396774
0.537697 0.15433359 0.028775608 0.4041037 0.04223864 0.30654165 -0.22996846 -0.12822492
0.055142164 0.22197881 -0.08494722 0.15643305 -0.18190724 -0.16355552 0.09609176 0.26952603
-0.11989706 -0.12068817 0.09759164 -0.18284903 0.06533271 -0.07207562 -0.28791234 0.15441504
-0.15423287 0.024453111 0.4668878 -0.12379321 -0.019544024 0.13842165 -0.035242327 0.1305038
0.10783435 0.02403586 -0.24071589 -0.43783683 -0.07608685 -0.16636035 0.073815316 0.25348786
0.13672544 -0.36290148 -0.19868687 -0.35421607 -0.28391048 0.14979807 -0.14739999 0.30084133
00000000: ac86 523d 1cf8 a4bc 4913 403d 15e0 903d
00000010: 93b8 0c3e 5cbe 633e ed1d 1ebd c2ef eebb
00000020: bab9 b93d 50ca a7bd f6ad 133d 8f14 90be
00000030: 2e72 093e fc44 66be 0dcd fbbd 541a 283e
00000040: 3375 21be 474b a3bd f66d 013e 0be0 b73e
00000050: cabd 113e 0fe2 d53d a798 573e e653 0bbe
00000060: c89d bc3d 77b5 833e 8fdf 023e 4a91 86bd
00000070: 57b0 973d f273 05be 73da b93d 0229 41be
00000080: f6f8 a63e 9616 293e 0300 f4bc 8b6b ed3d
00000090: d5d2 7fbd a1af 8dbe 931b d23d 3673 92bd
000000a0: b3f9 5a3d 2c7f c33e f80a 903d 05c3 023e
000000b0: 3a3c 2c3e b0fe 4c3e 39eb 21be 42ec 483e
000000c0: c926 70bd b68f 25be 514c bd3d 5694 853d
000000d0: 2a79 95be 572f c63c 9c37 003e 1390 893d
000000e0: 59a1 7bbe 9fdc acbd c802 12be d3dd 3d3e
000000f0: d40e 9f3e 4c96 0fbe 23e3 ca3e a8a0 f0bd
00000100: 5632 9abd b193 c53d 5555 393e 58d8 6d3e
00000110: 692b 4b3d d1e3 bd3e d6ce d9bd 0e1a 36bd
00000120: d0d0 8bbd 30cd 963e 532c 7ebe 0b88 b43e
00000130: 88f8 7e3d 083a c9bd 4d4f dc3d 4f11 903e
00000140: da33 99be 479c f33d b22e b13c 3443 9dbd
00000150: e9e9 cc3e b430 eabd 8b4a 4e3e 872a c33d
00000160: 2aa2 b5bd 7148 a33d 5da4 bdbe 01e1 89be
00000170: bf78 023e f681 9cbd 2686 8b3e 86ac 28bd
00000180: b837 3fbe 9bfc bf3d c070 0f3e 9379 003e
00000190: 513c b1bd a908 92be a63a 363e 031c 143e
000001a0: 4199 c3be 0e3c b63d 512c b93d 81a6 7a3e
000001b0: 86d3 26bd 2b79 963e b1a2 9bbe 3d42 86be
000001c0: 5bc7 aa3d c560 a23e 6b8e ba3d 0123 013d
000001d0: 85b5 40be 5061 113c d8b1 b1bd 1cdd 9fbd
000001e0: bac3 bfbe 8a34 6c3d a352 9c3d 2bb6 893e
000001f0: 059f babd fe0e 44be ebc0 bdbc 4b37 26be
00000200: d973 94be 2b77 133e 2ecb c13c 1fc7 0b3d
00000210: 721d 9fbe 7e7d 43bb 7820 a33e e038 72be
00000220: 06a8 4ebd 35e5 8dbd cdfe 0cbf 8aa8 2f3d
00000230: 756a 103e c7ee e6be 4ab4 cebe 16df fd3d
00000240: 4940 34bd bb2f f53d 95d1 ab3e dab8 a33d
00000250: 9031 9ebe c741 8c3d 9533 a2bd cb15 da3c
00000260: be89 523e 55ce 9cbd ad04 78bd 9904 5c3c
00000270: bfb4 0fbe 11cd 7e3e f6d7 733d fd49 cf3d
00000280: 94de bfbe eeca 0f3e 4fe4 94be 34ae 723d
00000290: b2b5 353e 18d7 263e 672d 46be c4f2 c23e
000002a0: 3faa 55bb bcf9 50be e152 9c3e 250e 91bd
000002b0: 50a3 13be 3b4a 52be 0d7f a43d 837a 58bc
000002c0: 8a26 e13d 9176 f03c 3c2a 9e3e d241 d23e
000002d0: a419 0a3e d208 0d3c cf11 c23e fcd4 42be
000002e0: 1c18 89bd 38f5 783d 0ad1 3f3d 8df6 22be
000002f0: e3b1 10bd de18 0d3f 36de f2bc 8a84 c03b
00000300: 216c 69bd 5b64 77be 9476 c33e 34bd 9ebe
00000310: 6bdc a9be a483 4c3e 04f8 9d3d 237c 293e
00000320: 9474 383e f726 4ebe 9c7e 26be d234 da3d
00000330: b555 193e 279c f73d a32e 2c3e fce5 9ebc
00000340: 83a6 093f a009 1e3e d3ba eb3c aee6 ce3e
00000350: 6d02 2d3d 07f3 9c3e da7c 6bbe 654d 03be
00000360: c0dc 613d 6a4e 633e cff8 adbd fc2f 203e
00000370: e445 3abe 197b 27be c2cb c43d 51ff 893e
00000380: 978c f5bd 5c2b f7bd 20de c73d c73c 3bbe
00000390: 28cd 853d 629c 93bd 3f69 93be fa1e 1e3e
000003a0: 39ef 1dbe e451 c83c eb0b ef3e 4b87 fdbd
000003b0: ca1a a0bc 68be 0d3e 425a 10bd caa2 053e
000003c0: 41d8 dc3d dae6 c43c 3a7e 76be 262c e0be
000003d0: 6cd3 9bbd 5e5a 2abe 7c2c 973d 29c9 813e
000003e0: c101 0c3e 39ce b9be 9274 4bbe cf5b b5be
000003f0: b75c 91be aa64 193e 06f0 16be e007 9a3e

blocks.0.attn.W_K f4 [2, 28, 14]
0.17779534 0.23496737 -0.13386513 0.22557281 0.28687972 0.08724335 0.28928518 -0.020533953
-0.04494142 -0.16553633 -0.053801384 -0.15166968 0.40650937 -0.075121164 -0.099116504 0.1000933
-0.22752018 -0.07639049 0.06495177 0.17690147 0.009317232 0.012623709 0.1858992 -0.0034422444
0.04915806 0.18310148 -0.05632888 0.0013403323 -0.0013295222 -0.16913137 -0.015725678 0.016751135
0.31433475 0.0707681 -0.094187036 0.14871146 0.110627316 -0.086173974 0.022517102 -0.023122815
-0.1548738 0.08043939 0.12085375 0.12125898 0.23248276 0.06846632 -0.10276654 -0.12791573
-0.010164208 -0.37996256 0.1578494 0.1344361 0.051065028 0.27145883 -0.039570585 0.038987353
-0.22356558 0.057790816 0.031134062 0.024691474 0.107018895 -0.18696056 0.09777718 -0.24399798
-0.13098767 -0.019514252 -0.05194356 0.26764444 0.2623874 0.3421383 0.04667373 -0.020507382
-0.22657514 0.15694259 -0.13988248 0.32576653 0.10413239 -0.46934187 0.112333775 0.03079089
-0.39211765 0.1712997 -0.29395777 0.07650692 -0.022958135 -0.14084381 -0.060484998 0.07750356
-0.21694101 0.24807934 -0.14215066 -0.13054202 0.052440874 0.060859498 -0.038047697 -0.10013127
0.0068755634 -0.162396 0.06518589 0.16431765 -0.27119666 -0.168631 0.28260377 0.094527766
-0.2724618 0.061868515 0.020327663 0.12082784 -0.19221316 0.3415698 -0.057650205 -0.044705793
0.18426354 0.31508905 -0.0044423505 0.07708826 -0.26445457 -0.11784071 0.009415095 -0.10355861
-0.29299143 -0.019641703 -0.038414177 0.1038959 -0.15429948 0.22820306 0.04915886 -0.07719416
-0.10108541 -0.05211185 0.02551605 -0.25400874 -0.20915432 -0.10053615 0.3256332 -0.5700023
-0.063123845 0.049972165 -0.16320476 -0.0021031173 -0.26189137 -0.3108692 -0.4033421 0.19180076
-0.23015356 0.071783304 0.17637916 0.22636876 -0.17780136 0.09477457 -0.11801418 0.019807607
0.17527495 0.121328704 0.1457728 -0.054531127 -0.1137983 -0.061485875 -0.068155356 0.15215227
-0.35870743 0.21516646 -0.42843658 -0.06136162 0.36510617 0.15090351 -0.14820376 0.03842265
0.07400457 -0.102046624 0.0066146352 0.14464903 -0.15368396 -0.10947715 -0.032355648 0.17834558
0.124027655 0.09246178 0.13954377 0.21697521 -0.08879225 -0.24866062 0.2671576 -0.058872767
-0.22304744 -0.085619226 0.32554418 -0.10244242 -0.0014591593 0.46356782 -0.05636599 0.009818884
-0.14294061 -0.196108 0.14815243 -0.09972358 -0.03788956 0.052654363 0.075158164 -0.025332147
0.011409481 -0.38510722 -0.3392921 0.037862208 0.36694074 -0.038823735 -0.040507745 -0.1837991
0.16170295 0.26800603 0.14315249 0.32834277 0.04023684 0.2014584 -0.018185804 -0.28230423
0.08217781 0.04140818 -0.17059846 0.24938266 -0.06864788 -0.099223085 0.19140862 0.008542944
0.16205691 -0.19162254 -0.050206356 -0.13128713 0.17103285 -0.12692495 -0.004646256 -0.040616937
-0.20655122 0.051778924 0.48616442 -0.062235083 -0.20289092 0.027484993 -0.22477424 0.055557016
0.08147779 0.17222019 -0.3913062 -0.24709965 -0.111924164 -0.19178917 0.3108593 0.07689349
0.3711642 -0.18803851 -0.24581434 -0.14134638 -0.148388 0.06730165 -0.2839645 0.00757189
00000000: fb0f 363e 499b 703e f113 09be 8ffc 663e
00000010: e6e1 923e a4ac b23d 301d 943e d236 a8bc
00000020: 7f14 38bd 5b82 29be d75e 5cbd 4c4f 1bbe
00000030: ff21 d03e 20d9 99bd 98fd cabd b7fd cc3d
00000040: 0dfb 68be 9e72 9cbd 6f05 853d a925 353e
00000050: 4ea7 183c acd3 4e3c 5c5c 3e3e 4797 61bb
00000060: f659 493d f47e 3b3e 1db9 66bd 17ae af3a
00000070: 5d43 aeba c630 2dbe 23d3 80bc ad39 893c
00000080: 7cf0 a03e deee 903d 22e5 c0bd d147 183e
00000090: 9390 e23d fb7b b0bd c975 b83c 0f6c bdbc
000000a0: 3d97 1ebe 68bd a43d 2c82 f73d a156 f83d
000000b0: f60f 6e3e 1238 8c3d 4477 d2bd 57fc 02be
000000c0: c787 26bc 748a c2be 46a3 213e 9ea9 093e
000000d0: 9029 513d a7fc 8a3e c414 22bd 34b1 1f3d
000000e0: 60ee 64be 10b6 6c3d dc0c ff3c c645 ca3c
000000f0: b92c db3d 9772 3fbe 673f c83d 9bda 79be
00000100: a221 06be 5adc 9fbc c5c2 54bd b108 893e
00000110: a457 863e c02c af3e f42c 3f3d 19ff a7bc
00000120: 5003 68be 8fb5 203e 5a3d 0fbe dfca a63e
00000130: 5d43 d53d 944d f0be 400f e63d 2d3d fc3c
00000140: a5c3 c8be 3069 2f3e a281 96be a9af 9c3d
00000150: b312 bcbc 5c39 10be 1ebf 77bd 30ba 9e3d
00000160: c925 5ebe 8308 7e3e f18f 11be cfac 05be
00000170: 3ecc 563d cf47 793d e7d7 1bbd a011 cdbd
00000180: 684c e13b 234b 26be 2e80 853d e342 283e
00000190: 4ada 8abe 9bad 2cbe 71b1 903e c697 c13d
000001a0: 1d80 8bbe d769 7d3d 3386 a63c 9674 f73d
000001b0: 87d3 44be 3de2 ae3e 9f22 6cbd 6c1d 37bd
000001c0: 95af 3c3e 5a53 a13e 2391 91bb 73e0 9d3d
000001d0: 9766 87be 7856 f1bd c541 1a3c 8916 d4bd
000001e0: f902 96be a3e7 a0bc 2f58 1dbd 60c7 d43d
000001f0: af00 1ebe 10ae 693e cd5a 493d f917 9ebd
00000200: de05 cfbd 3c73 55bd 0907 d13c 6f0d 82be
00000210: 8d2c 56be e6e5 cdbd 65b9 a63e aceb 11bf
00000220: 1347 81bd 9daf 4c3d 261f 27be 74d4 09bb
00000230: a016 86be 3f2a 9fbe db82 cebe 6b67 443e
00000240: 60ad 6bbe 2003 933d bd9c 343e 36cd 673e
00000250: 8f11 36be 2b19 c23d 6bb1 f1bd 9043 a23c
00000260: 477b 333e 2f7b f83d 7745 153e 085c 5fbd
00000270: 150f e9bd 9dd8 7bbd 0995 8bbd cecd 1b3e
00000280: 80a8 b7be 9954 5c3e 0a5c dbbe 5256 7bbd
00000290: 32ef ba3e 7386 1a3e bac2 17be 1261 1d3d
000002a0: b58f 973d d2fd d0bd 95bf d83b e01e 143e
000002b0: 545f 1dbe 8e35 e0bd 5b87 04bd 39a0 363e
000002c0: 3602 fe3d 9a5c bd3d 90e4 0e3e c02e 5e3e
000002d0: b6d8 b5bd e4a0 7ebe e2c8 883e 9224 71bd
000002e0: 8c66 64be 2259 afbd baad a63e 55cd d1bd
000002f0: 4341 bfba c358 ed3e 06e0 66bd 62df 203c
00000300: 065f 12be 89d0 48be 45b5 173e e03b ccbd
00000310: 1532 1bbd 1aac 573d 86ec 993d 5d85 cfbc
00000320: d5ee 3a3c c62c c5be b2b7 adbe 6715 1b3d
00000330: a8df bb3e a305 1fbd 73eb 25bd d535 3cbe
00000340: 7595 253e 1638 893e 9196 123e 8b1c a83e
00000350: 62cf 243d 1c4b 4e3e 65fa 94bc 2e8a 90be
00000360: d74c a83d a09b 293d 5db1 2ebe 2b5e 7f3e
00000370: 4297 8cbd 7935 cbbd 9f00 443e b4f7 0b3c
00000380: 3ff2 253e b338 44be 2ea5 4dbd 2270 06be
00000390: 3c23 2f3e 9df8 01be 9f3f 98bb f25d 26bd
000003a0: 2a82 53be 2316 543d 8bea f83e 37ea 7ebd
000003b0: a3c2 4fbe 3528 e13c 382b 66be c18f 633d
000003c0: d4dd a63d 7d5a 303e 4959 c8be b107 7dbe
000003d0: 7f38 e5bd 6164 44be f328 9f3e 567a 9d3d
000003e0: 3c09 be3e 2b8d 40be c1b6 7bbe 1bbd 10be
000003f0: 06f3 17be 73d5 893d cc63 91be 9e1d f83b

blocks.0.attn.W_V f4 [2, 28, 14]
-0.09361849 0.078294754 0.046004303 -0.0523512 0.21727659 0.2181899 -0.23510094 0.05541347
0.05463143 0.043002397 0.09446241 -0.0029790506 0.09559156 -0.03110879 0.3213233 -0.020263702
0.15052636 0.26860335 0.19143933 -0.07970928 0.17494823 -0.03281613 0.14948003 0.1294042
0.20453152 -0.1053181 0.410253 0.18077515 -0.06561188 0.2555693 -0.033118986 -0.23687702
-0.012667634 0.0053890753 0.025859063 -0.073908836 0.14663182 -0.10214971 -0.14701384 -0.12314421
0.405541 0.010316396 -0.15175876 0.07973091 -0.108749814 0.04099717 -0.15026689 0.10196074
0.19065838 0.09305503 0.019042883 -0.2720619 -0.0069096033 -0.0794242 -0.018212125 0.10483739
-0.14693962 0.12994869 -0.03490302 -0.015863862 0.043735996 -0.17569105 -0.14873978 -0.17321879
0.03972011 -0.13073762 0.1424297 0.4355262 0.03116816 0.10361436 0.021215372 -0.3327071
-0.015941856 0.19146231 -0.10387523 -0.26090404 -0.0817221 -0.03387805 0.36049065 0.0017486741
0.06109354 0.042859893 -0.15485772 -0.051264185 -0.13866252 0.010120163 -0.03620774 0.2951616
0.1446025 -0.2973231 0.07103799 0.0597425 0.049470525 -0.049774032 0.034077443 -0.18185976
0.30274478 -0.027099177 -0.06246953 0.05994419 0.073842734 -0.12104372 -0.09014208 -0.004110857
-0.05133496 -0.31725657 0.024383985 0.13220963 -0.023298768 -0.021919386 -0.11838321 0.16615771
-0.012359532 -0.10737022 0.046157047 0.21816516 0.10177754 -0.02609797 -0.050953053 0.013152086
-0.0049420176 0.20785175 -0.05184669 -0.16186576 0.23863381 0.11005736 -0.17681511 -0.052056696
0.10501458 0.010747543 -0.023644356 0.14539763 0.07225925 -0.22836885 -0.090510935 0.14662299
0.0036743195 -0.3310408 -0.051441725 -0.3569937 0.02988043 0.15086488 0.032385577 0.029933829
-0.024277698 0.076535635 -0.21653056 -0.0453854 -0.028222766 0.048158105 -0.17387958 0.081892274
-0.15616342 -0.3224152 -0.07577143 -0.2976833 0.2846626 -0.22413175 0.0948654 0.16726351
-0.087896496 -0.054019824 0.16464397 0.03863562 0.07855372 -0.17083362 -0.022034552 -0.14836709
0.035607647 -0.16560502 -0.09727187 0.002424004 -0.08915829 -0.011428228 -0.15946513 0.1459469
-0.120783865 -0.08987939 0.12548424 0.14713457 0.38022333 0.23482142 0.10630227 -0.01993898
0.18491936 0.14176823 0.14594655 -0.012507063 -0.035240136 0.09174264 0.10423311 0.06652509
-0.18623492 -0.08887982 0.09089248 0.03882584 0.047601234 -0.025991594 -0.06860246 0.07542942
0.038285658 -0.12617655 -0.140803 0.25903052 0.26950878 -0.11595774 0.11600499 0.17537153
-0.037951723 -0.040475927 0.37069657 0.049392134 -0.15819247 0.25194886 -0.0016596998 -0.094063565
0.073744595 -0.015036017 -0.34694383 0.2129358 -0.21430384 0.08739326 -0.14827822 -0.39927605
0.07000662 0.100702524 -0.124338694 -0.12799446 0.13501208 0.21858506 -0.015957324 0.08232024
-0.012410123 0.13468899 -0.21763961 -0.062903106 0.3776237 0.042637523 -0.21828453 0.106350616
0.16680714 0.11696268 -0.2283097 -0.2309628 -0.008064333 -0.13473465 -0.16727644 -0.19796921
0.062432434 0.14334157 -0.0010428159 0.08210814 -0.016343808 -0.10382345 -0.028376767 -0.09696783
00000000: 0dbb bfbd 0059 a03d 026f 3c3d 366e 56bd
00000010: c17d 5e3e 2c6d 5f3e 4dbe 70be 3cf9 623d
00000020: 35c5 5f3d 4823 303d 8275 c13d 2d3c 43bb
00000030: 82c5 c33d dcd7 febc 7d84 a43e 1000 a6bc
00000040: 9523 1a3e 6186 893e ac08 443e 9e3e a3bd
00000050: a125 333e 356a 06bd 4b11 193e 8982 043e
00000060: b670 513e 04b1 d7bd ae0c d23e 1f1d 393e
00000070: 855f 86bd fbd9 823e c6a7 07bd e48f 72be
00000080: e88b 4fbc d796 b03b 63d6 d33c 845d 97bd
00000090: a726 163e de33 d1bd cc8a 16be 0833 fcbd
000000a0: 12a3 cf3e 1a06 293c a666 1bbe f649 a33d
000000b0: 39b8 debd a6ec 273d 90df 19be cbd0 d03d
000000c0: f33b 433e a393 be3d d2ff 9b3c b34b 8bbe
000000d0: f469 e2bb 28a9 a2bd 9831 95bc fcb4 d63d
000000e0: 5777 16be 4511 053e 78f6 0ebd eef4 81bc
000000f0: 8424 333d 5be8 33be 3e4f 18be 4460 31be
00000100: 8eb1 223d 15e0 05be 17d9 113e 4afd de3e
00000110: 5e54 ff3c c433 d43d dccb ad3c 9658 aabe
00000120: 7f98 82bc b20e 443e 89bc d4bd 3795 85be
00000130: eb5d a7bd b6c3 0abd 3b92 b83e c433 e53a
00000140: 383d 7a3d db8d 2f3d 0693 1ebe 65fa 51bd
00000150: 8cfd 0dbe 0acf 253c 914e 14bd 6c1f 973e
00000160: ae12 143e bc3a 98be 5e7c 913d 8db4 743d
00000170: 9ba1 4a3d dbdf 4bbd ca94 0b3d 7239 3abe
00000180: 5d01 9b3e 18ff ddbc 0de0 7fbd 0a88 753d
00000190: dc3a 973d c5e5 f7bd 699c b8bd 5eb4 86bb
000001a0: 9b44 52bd 746f a2be ecc0 c73c f661 073e
000001b0: 0fdd bebc 4990 b3bc e572 f2bd 3f25 2a3e
000001c0: a27f 4abc ebe4 dbbd 2c0f 3d3d b066 5f3e
000001d0: be70 d03d 69cb d5bc 26b4 50bd d97b 573c
000001e0: a6f0 a1bb 17d7 543e 325d 54bd 23c0 25be
000001f0: 6c5c 743e c165 e13d 050f 35be 6739 55bd
00000200: e211 d73d 7616 303c cfb1 c1bc 1ee3 143e
00000210: a8fc 933d 86d9 69be cc5d b9bd 5624 163e
00000220: dacc 703b 2e7e a9be 8fb4 52bd e1c7 b6be
00000230: cec7 f43c 537c 1a3e bda6 043d ca37 f53c
00000240: 06e2 c6bc b7be 9c3d 30ba 5dbe 0be6 39bd
00000250: 6e33 e7bc 6f41 453d 7d0d 32be 23b7 a73d
00000260: 4ee9 1fbe 9b13 a5be 0d2e 9bbd f269 98be
00000270: 4cbf 913e cb82 65be ca48 c23d 2047 2b3e
00000280: 1403 b4bd e443 5dbd 6e98 283e 6240 1e3d
00000290: c6e0 a03d 02ef 2ebe ce81 b4bc 8bed 17be
000002a0: 53d9 113d 5d94 29be 7936 c7bd 0adc 1e3b
000002b0: 9f98 b6bd 763d 3bbc d44a 23be 1b73 153e
000002c0: 885d f7bd b012 b8bd f17e 003e 72aa 163e
000002d0: a2ac c23e 0775 703e 01b5 d93d 1257 a3bc
000002e0: 805b 3d3e b12b 113e 0373 153e 6dea 4cbc
000002f0: f657 10bd 91e3 bb3d 2b78 d53d 4e3e 883d
00000300: 5eb4 3ebe a006 b6bd d625 ba3d d807 1f3d
00000310: 83f9 423d 53ec d4bc 727f 8cbd bd7a 9a3d
00000320: 6cd1 1c3d 6d34 01be a92e 10be a69f 843e
00000330: 0efd 893e 407b edbd 0694 ed3d 9894 333e
00000340: 4473 1bbd 16ca 25bd f1cb bd3e 684f 4a3d
00000350: 35fd 21be 71ff 803e 498a d9ba 66a4 c0bd
00000360: 6807 973d a059 76bc 9fa2 b1be d80b 5a3e
00000370: 7772 5bbe 3dfb b23d 3fd6 17be e96d ccbe
00000380: a15f 8f3d 203d ce3d 49a5 febd fb10 03be
00000390: 9b40 0a3e c3d4 5f3e efb8 82bc 8497 a83d
000003a0: d453 4bbc e9eb 093e ebdc 5ebe 58d3 80bd
000003b0: e557 c13e afa4 2e3d fb85 5fbe 5ace d93d
000003c0: 7ecf 2a3e 218a ef3d 05ca 69be 8381 6cbe
000003d0: 4420 04bc e1f7 09be 844a 2bbe 71b8 4abe
000003e0: 27b9 7f3d 22c8 123e 18af 88ba 5028 a83d
000003f0: 73e3 85bc 64a1 d4bd 6576 e8bc 1297 c6bd

blocks.0.attn.W_O f4 [2, 14, 28]
0.015332417 0.053659704 -0.0093970215 -0.047865823 0.03125716 -0.057948947 -0.09739236 -0.14835075
0.4785088 -0.25551096 -0.087240405 -0.15588549 -0.07927932 0.063030705 -0.06985971 0.35404116
-0.0688299 -0.22716846 0.11240794 0.012944857 -0.23459595 0.018880896 0.17886832 -0.03999662
0.01232998 0.37382355 -0.23622291 0.09873939 0.2223545 0.18902214 0.08882659 -0.42377752
-0.105255984 0.1970846 -0.12776846 0.022090904 0.08101079 -0.06514154 -0.17336832 0.04569296
0.058272865 -0.012583173 -0.18167862 -0.043641925 0.20491204 -0.039387383 -0.1387703 -0.16802621
0.14401297 -0.114244156 -0.007054517 -0.15381233 0.12943158 -0.19927157 -0.15531413 0.2449695
-0.045338154 -0.09254927 -0.09451887 -0.22927189 0.23018035 -0.26690787 -0.2234151 0.057635535
-0.10040629 -0.052629333 0.06879828 -0.048635077 0.30772966 -0.104231134 0.115310475 -0.119533174
-0.10655626 0.090069786 0.039890736 0.3325603 -0.050171025 -0.07643605 0.19190982 -0.068331406
0.027565653 0.084490925 0.18813734 -0.09522938 -0.016445864 0.053448766 0.055993732 -0.22387707
0.045343507 0.19916774 -0.29113775 -0.16735151 -0.11026712 -0.0036539675 -0.15310581 0.13843592
-0.03639721 -0.13990656 0.009169632 -0.16873613 0.05394798 0.19229573 -0.07671849 -0.15098059
0.16171326 -0.2470619 0.048086453 -0.1041396 -0.095696725 0.23815107 0.14740005 -0.17041685
0.0768101 0.023406692 -0.2098123 0.114336275 0.10605725 -0.16325109 -0.14157608 0.116881475
-0.15108371 -0.1954511 0.18898207 -0.07440849 0.21212539 -0.17939647 -0.080698036 -0.2660452
0.03524345 0.15960382 0.007675586 -0.20038676 0.018320693 0.1408872 0.07396717 -0.2348036
-0.018525913 -0.10423759 -0.10820235 -0.1503262 -0.3164365 -0.076642536 -0.054796558 0.020883527
-0.09470617 0.26475233 0.021765789 0.030758929 0.022282561 0.26868832 -0.019081347 -0.14920188
-0.29183036 0.016721977 0.1012573 -0.36703205 -0.18216708 0.07124828 -0.170452 -0.0612375
-0.14953566 -0.1436107 0.041135933 -0.15028226 0.17107818 0.18246031 -0.015844846 0.28807628
0.39745614 0.018553097 0.15969823 0.019135999 0.06367273 -0.11371363 -0.08278374 -0.16470869
-0.02228067 -0.1629244 -0.076160796 0.30001482 -0.13767442 -0.09954138 -0.054956373 0.08070783
-0.099107936 0.2436024 0.037159108 -0.055307265 0.1795639 -0.11292567 0.024430348 -0.0020492238
-0.18006772 0.26113573 -0.2193467 -0.10294159 -0.24654227 0.04789896 -0.060511623 -0.025389118
0.135035 0.17386287 -0.051914625 0.14999922 0.40453574 0.13150188 0.070148475 0.105582
0.009071315 0.4085569 0.109173805 -0.11066989 0.01787276 -0.12792163 0.019320752 0.011714594
-0.12341216 0.22009473 -0.02471661 -0.0980927 -0.055173986 0.13909045 -0.20841043 -0.14274901
0.0830655 0.09098729 -0.17255028 0.1478766 0.1520923 -0.14751981 -0.062802486 0.069517925
0.13912657 0.106086925 -0.2551671 -0.17948307 0.018792748 0.07962204 -0.1355282 -0.0032253189
0.36024278 0.12281619 0.18475093 -0.116815165 -0.32326427 0.04814042 -0.17390391 0.07957301
-0.037265792 0.3437415 0.15694958 -0.17958784 0.15212269 -0.02700907 0.066152744 -0.1696815
00000000: d134 7b3c 47ca 5b3d f7f5 19bc f40e 44bd
00000010: 8207 003d e05b 6dbd a575 c7bd 42e9 17be
00000020: 1bff f43e 55d2 82be 19ab b2bd 72a0 1fbe
00000030: 325d a2bd 3e16 813d 9c12 8fbd e244 b53e
00000040: b1f6 8cbd d99e 68be 2236 e63d aa16 543c
00000050: ec39 70be 1cac 9a3c 4229 373e 7fd3 23bd
00000060: af03 4a3c cd65 bf3e 6be4 71be e137 ca3d
00000070: e6b0 633e 058f 413e b7ea b53d 5ef9 d8be
00000080: 7390 d7bd 8cd0 493e bcd5 02be fcf7 b43c
00000090: fce8 a53d ed68 85bd 7787 31be 8b28 3b3d
000000a0: 87af 6e3d a729 4ebc f609 3abe e0c1 32bd
000000b0: 76d4 513e aa54 21bd cd19 0ebe 100f 2cbe
000000c0: 2378 133e d7f8 e9bd 9429 e7bb fb80 1dbe
000000d0: b689 043e d90d 4cbe ab0a 1fbe 49d9 7a3e
000000e0: 80b4 39bd 798a bdbd 1c93 c1bd 40c6 6abe
000000f0: 66b4 6b3e 26a8 88be eec6 64be 3d13 6c3d
00000100: d0a1 cdbd db91 57bd 1de6 8c3d 9335 47bd
00000110: be8e 9d3e 2277 d5bd e627 ec3d cfcd f4bd
00000120: 2b3a dabd 8276 b83d 7864 233d 5845 aa3e
00000130: 2280 4dbd 818a 9cbd 0284 443e 56f1 8bbd
00000140: 5dd1 e13c 9409 ad3d 13a7 403e 9f07 c3bd
00000150: 7ab9 86bc 18ed 5a3d af59 653d 0840 65be
00000160: 1dba 393d a1f2 4b3e 0210 95be 325e 2bbe
00000170: bad3 e1bd 6777 6fbb c5c7 1cbe 25c2 0d3e
00000180: 3e15 15bd aa43 0fbe 393c 163c 2ac9 2cbe
00000190: 8ff8 5c3d 2ce9 443e 951e 9dbd a89a 1abe
000001a0: 2998 253e cbfd 7cbe 4df6 443d 2547 d5bd
000001b0: a5fc c3bd e0dd 733e 0af0 163e c181 2ebe
000001c0: 9d4e 9d3d 64bf bf3c 09d9 56be 2329 ea3d
000001d0: 8b34 d93d 4b2b 27be 52f9 10be 8e5f ef3d
000001e0: b0b5 1abe 5524 48be 8484 413e 7a63 98bd
000001f0: 6637 593e b5b3 37be 0345 a5bd 1437 88be
00000200: 705b 103d 2f6f 233e 7b83 fb3b 3032 4dbe
00000210: 4715 963c bc44 103e 1a7c 973d 5b70 70be
00000220: a8c3 97bc 857a d5bd 3299 ddbd 1def 19be
00000230: f703 a2be c3f6 9cbd 5b72 60bd ee13 ab3c
00000240: 4ff5 c1bd 9e8d 873e 2b4e b23c 26fa fb3c
00000250: eb89 b63c 8491 893e 7c50 9cbc 61c8 18be
00000260: ca6a 95be 87fc 883c fd5f cf3d a0eb bbbe
00000270: 028a 3abe 9eea 913d f88a 2ebe 2cd4 7abd
00000280: e01f 19be af0e 13be 277e 283d 98e3 19be
00000290: 1e2f 2f3e e0d6 3a3e 0dcd 81bc bc7e 933e
000002a0: 5f7f cb3e aafc 973c ef87 233e 19c3 9c3c
000002b0: d966 823d b1e2 e8bd 858a a9bd 65a9 28be
000002c0: f485 b6bc a7d5 26be 31fa 9bbd 8b9b 993e
000002d0: 86fa 0cbe 5adc cbbd ef19 61bd 264a a53d
000002e0: 1af9 cabd e872 793e 2634 183d df89 62bd
000002f0: 99df 373e 9345 e7bd 2722 c83c 454c 06bb
00000300: ac63 38be 95b3 853e 6c9c 60be 0ad3 d2bd
00000310: 9475 7cbe b331 443d 09db 77bd d7fc cfbc
00000320: 9d46 0a3e 1c09 323e 6ea4 54bd 6599 193e
00000330: 4f1f cf3e 6ea8 063e 01aa 8f3d 603b d83d
00000340: da9f 143c 5f2e d13e 8496 df3d e5a6 e2bd
00000350: e569 923c e3fd 02be 8e46 9e3c 92ee 3f3c
00000360: 84bf fcbd 8360 613e 7d7a cabc d3e4 c8bd
00000370: 1efe 61bd ba6d 0e3e 8b69 55be cc2c 12be
00000380: 3f1e aa3d 8b57 ba3d 05b1 30be f76c 173e
00000390: 15be 1b3e 6f0f 17be 979e 80bd 6a5f 8e3d
000003a0: 3277 0e3e 1a44 d93d 43a5 82be 69ca 37be
000003b0: 40f3 993c e110 a33d e8c7 0abe df5f 53bb
000003c0: be71 b83e 0e87 fb3d 592f 3d3e ca3c efbd
000003d0: e582 a5be e42e 453d de13 32be 2df7 a23d
000003e0: 04a4 18bd e3fe af3e 64b7 203e e0e5 37be
000003f0: 0dc6 1b3e 2042 ddbc 177b 873d fdc0 2dbe

blocks.0.attn.b_Q f4 [2, 14]
0.0037427994 -0.013707693 -0.073773324 -0.00056214974 -0.031444203 0.14203158 0.15314952 0.043661505
-0.11296272 -0.043858632 -0.08244748 -0.0038527383 -0.00838351 -0.03786459 0.016027335 0.02743727
-0.054022003 -0.11429981 0.024467122 -0.08419373 0.08893749 0.06886226 0.13262461 -0.025095671
0.0053474954 0.12498464 -0.054561768 -0.008355493
00000000: c149 753b 3b96 60bc 7816 97bd 3b5d 13ba
00000010: a3cb 00bd ba70 113e 3ad3 1c3e 68d6 323d
00000020: 0059 e7bd 1ca5 33bd 39da a8bd 397e 7cbb
00000030: fd5a 09bc e617 1bbd c24b 833c 20c4 e03c
00000040: 2d46 5dbd 0516 eabd 466f c83c c36d acbd
00000050: dc24 b63d a807 8d3d bfce 073e 7095 cdbc
00000060: 0b3a af3b f2f7 ff3d 297c 5fbd 7ae5 08bc

blocks.0.attn.b_K f4 [2, 14]
-0.0014018776 -0.00011310938 0.0063200165 0.0046003265 0.0050435076 0.0032685418 0.010630418 0.0012229965
-0.0072629876 -8.375589e-05 0.00066243944 0.0045236945 0.00079473323 0.0031692807 0.0008456247 0.0042719487
0.0050056097 -0.0023786852 -0.0018619639 7.463838e-05 0.005412591 -0.00022132984 0.0019616133 -0.0010116529
-0.00033511381 0.0027674297 0.0016304041 -7.657495e-05
00000000: 35bf b7ba 2335 edb8 2418 cf3b 56be 963b
00000010: 0244 a53b 0835 563b 342b 2e3c f44c a03a
00000020: 5bfe edbb 1aa6 afb8 8fa7 2d3a 803b 943b
00000030: a555 503a b5b3 4f3b eaac 5d3a b4fb 8b3b
00000040: 1906 a43b b7e3 1bbb 240d f4ba 2d87 9c38
00000050: 1b5c b13b c714 68b9 698e 003b 7099 84ba
00000060: 37b2 afb9 c45d 353b 49b3 d53a dd96 a0b8

blocks.0.attn.b_V f4 [2, 14]
-0.02740232 0.05288418 0.042315334 -0.020079046 0.03081791 -0.02449423 -0.040215477 -0.024552407
-0.005567985 0.010901151 0.034354694 0.033176895 0.0052391244 -0.016918126 -0.0022948883 0.034052845
-0.05255864 -0.008324385 0.020806668 -0.021135995 0.025756193 0.021685524 -0.020737907 -0.048952896
-0.0695711 0.016295807 0.014387077 -0.0072211823
00000000: d57a e0bc 159d 583d d852 2d3d d07c a4bc
00000010: d775 fc3c 20a8 c8bc fcb8 24bd 2122 c9bc
00000020: a573 b6bb be9a 323c 82b7 0c3d 7fe4 073d
00000030: f6ac ab3b e297 8abc d665 16bb ff7a 0b3d
00000040: ba47 57bd 0063 08bc bf72 aa3c 6525 adbc
00000050: a7fe d23c d7a5 b13c 8be2 a9bc d582 48bd
00000060: 4b7b 8ebd c97e 853c c6b7 6b3c ab9f ecbb

blocks.0.attn.b_O f4 [28]
0.013790211 0.009750015 -0.052919663 -0.01956285 0.024560187 -0.032501604 -0.002403093 -0.0057010422
-0.026093643 -0.039400395 -0.023353305 0.0030586494 0.06816314 -0.010039186 0.013663456 -0.014871235
-0.01426298 -0.03241839 -0.023338128 0.005607479 0.0045670066 0.030447155 0.004936103 -0.008228404
-0.017662128 -0.024349906 0.0446926 0.04502017
00000000: 56f0 613c 87be 1f3c 4ac2 58bd 4542 a0bc
00000010: 7232 c93c 6720 05bd 367d 1dbb cfcf babb
00000020: 56c2 d5bc 4f62 21bd 6e4f bfbc 9f73 483b
00000030: 1e99 8b3d 667b 24bc b0dc 5f3c 7ba6 73bc
00000040: 46af 69bc 25c9 04bd 9a2f bfbc f1be b73b
00000050: d4a6 953b 506c f93c 08bf a13b 6ed0 06bc
00000060: 2bb0 90bc 7479 c7bc 960f 373d 1267 383d

blocks.1.ln1.w f4 [28]
0.89732015 0.89856553 1.0044726 0.97128457 1.0029285 0.9726441 1.0662453 1.0422537
1.0677896 0.9731316 0.9890424 0.96627367 1.0807962 0.9862359 1.001164 0.8504882
1.0216829 1.0286561 0.924161 0.9695578 0.8676473 0.9946654 1.0240973 0.99544144
1.0889894 0.9717792 0.9907224 1.0614358
00000000: c6b6 653f 6408 663f 8f92 803f 1ba6 783f
00000010: f65f 803f 34ff 783f ba7a 883f 9268 853f
00000020: 54ad 883f 271f 793f e231 7d3f b65d 773f
00000030: 8857 8a3f f579 7c3f 2426 803f 98b9 593f
00000040: 81c6 823f 01ab 833f d195 6c3f f134 783f
00000050: 221e 5e3f 64a2 7e3f 9f15 833f 40d5 7e3f
00000060: 0164 8b3f 86c6 783f fc9f 7d3f 21dd 873f

blocks.1.ln1.b f4 [28]
-0.0212366 0.02756131 0.04203126 -0.056739956 -0.020227792 -0.03228531 0.07292464 -0.023892147
-0.04809586 -0.0019028003 0.039259814 0.01401498 -0.026961979 0.043211553 0.004426357 0.04130705
-0.06050568 0.0326057 -0.03627035 0.03241615 -0.026529377 -0.011432716 0.024304999 -0.03161426
0.044979755 -0.040958676 0.013931314 -0.023560293
00000000: 61f8 adbc 42c8 e13c f828 2c3d 2868 68bd
00000010: c1b4 a5bc 9a3d 04bd 8359 953d 77b9 c3bc
00000020: 2a00 45bd 6267 f9ba e6ce 203d 169f 653c
00000030: 5edf dcbc 99fe 303d f90a 913b 9531 293d
00000040: ced4 77bd 8e8d 053d 3890 14bd ccc6 043d
00000050: 2354 d9bc 4950 3bbc 471b c73c f47d 01bd
00000060: b13c 383d 49c4 27bd 2b40 643c 8401 c1bc

blocks.1.attn.W_Q f4 [2, 28, 14]
0.0 0.0 0.0 0.0 0.0 0.0 0.0 0.0
0.0 0.0 0.0 0.0 0.0 0.0 0.0 0.0
0.0 0.0 0.0 0.0 0.0 0.0 0.0 0.0
0.0 0.0 0.0 0.0 0.0 0.0 0.0 0.0
0.0 0.0 0.0 0.0 0.0 0.0 0.0 0.0
0.0 0.0 0.0 0.0 0.0 0.0 0.0 0.0
0.0 0.0 0.0 0.0 0.0 0.0 0.0 0.0
0.0 0.0 0.0 0.0 0.0 0.0 0.0 0.0
0.0 0.0 0.0 0.0 0.0 0.0 0.0 0.0
0.0 0.0 0.0 0.0 0.0 0.0 0.0 0.0
0.0 0.0 0.0 0.0 0.0 0.0 0.0 0.0
0.0 0.0 0.0 0.0 0.0 0.0 0.0 0.0
0.0 0.0 0.0 0.0 0.0 0.0 0.0 0.0
0.0 0.0 0.0 0.0 0.0 0.0 0.0 0.0
0.0 0.0 0.0 0.0 0.0 0.0 0.0 0.0
0.0 0.0 0.0 0.0 0.0 0.0 0.0 0.0
0.0 0.0 0.0 0.0 0.0 0.0 0.0 0.0
0.0 0.0 0.0 0.0 0.0 0.0 0.0 0.0
0.0 0.0 0.0 0.0 0.0 0.0 0.0 0.0
0.0 0.0 0.0 0.0 0.0 0.0 0.0 0.0
0.0 0.0 0.0 0.0 0.0 0.0 0.0 0.0
0.0 0.0 0.0 0.0 0.0 0.0 0.0 0.0
0.0 0.0 0.0 0.0 0.0 0.0 0.0 0.0
0.0 0.0 0.0 0.0 0.0 0.0 0.0 0.0
0.0 0.0 0.0 0.0 0.0 0.0 0.0 0.0
0.0 0.0 0.0 0.0 0.0 0.0 0.0 0.0
0.0 0.0 0.0 0.0 0.0 0.0 0.0 0.0
0.0 0.0 0.0 0.0 0.0 0.0 0.0 0.0
0.0 0.0 0.0 0.0 0.0 0.0 0.0 0.0
0.0 0.0 0.0 0.0 0.0 0.0 0.0 0.0
0.0 0.0 0.0 0.0 0.0 0.0 0.0 0.0
0.0 0.0 0.0 0.0 0.0 0.0 0.0 0.0
00000000: 0000 0000 0000 0000 0000 0000 0000 0000
00000010: 0000 0000 0000 0000 0000 0000 0000 0000
00000020: 0000 0000 0000 0000 0000 0000 0000 0000
00000030: 0000 0000 0000 0000 0000 0000 0000 0000
00000040: 0000 0000 0000 0000 0000 0000 0000 0000
00000050: 0000 0000 0000 0000 0000 0000 0000 0000
00000060: 0000 0000 0000 0000 0000 0000 0000 0000
00000070: 0000 0000 0000 0000 0000 0000 0000 0000
00000080: 0000 0000 0000 0000 0000 0000 0000 0000
00000090: 0000 0000 0000 0000 0000 0000 0000 0000
000000a0: 0000 0000 0000 0000 0000 0000 0000 0000
000000b0: 0000 0000 0000 0000 0000 0000 0000 0000
000000c0: 0000 0000 0000 0000 0000 0000 0000 0000
000000d0: 0000 0000 0000 0000 0000 0000 0000 0000
000000e0: 0000 0000 0000 0000 0000 0000 0000 0000
000000f0: 0000 0000 0000 0000 0000 0000 0000 0000
00000100: 0000 0000 0000 0000 0000 0000 0000 0000
00000110: 0000 0000 0000 0000 0000 0000 0000 0000
00000120: 0000 0000 0000 0000 0000 0000 0000 0000
00000130: 0000 0000 0000 0000 0000 0000 0000 0000
00000140: 0000 0000 0000 0000 0000 0000 0000 0000
00000150: 0000 0000 0000 0000 0000 0000 0000 0000
00000160: 0000 0000 0000 0000 0000 0000 0000 0000
00000170: 0000 0000 0000 0000 0000 0000 0000 0000
00000180: 0000 0000 0000 0000 0000 0000 0000 0000
00000190: 0000 0000 0000 0000 0000 0000 0000 0000
000001a0: 0000 0000 0000 0000 0000 0000 0000 0000
000001b0: 0000 0000 0000 0000 0000 0000 0000 0000
000001c0: 0000 0000 0000 0000 0000 0000 0000 0000
000001d0: 0000 0000 0000 0000 0000 0000 0000 0000
000001e0: 0000 0000 0000 0000 0000 0000 0000 0000
000001f0: 0000 0000 0000 0000 0000 0000 0000 0000
00000200: 0000 0000 0000 0000 0000 0000 0000 0000
00000210: 0000 0000 0000 0000 0000 0000 0000 0000
00000220: 0000 0000 0000 0000 0000 0000 0000 0000
00000230: 0000 0000 0000 0000 0000 0000 0000 0000
00000240: 0000 0000 0000 0000 0000 0000 0000 0000
00000250: 0000 0000 0000 0000 0000 0000 0000 0000
00000260: 0000 0000 0000 0000 0000 0000 0000 0000
00000270: 0000 0000 0000 0000 0000 0000 0000 0000
00000280: 0000 0000 0000 0000 0000 0000 0000 0000
00000290: 0000 0000 0000 0000 0000 0000 0000 0000
000002a0: 0000 0000 0000 0000 0000 0000 0000 0000
000002b0: 0000 0000 0000 0000 0000 0000 0000 0000
000002c0: 0000 0000 0000 0000 0000 0000 0000 0000
000002d0: 0000 0000 0000 0000 0000 0000 0000 0000
000002e0: 0000 0000 0000 0000 0000 0000 0000 0000
000002f0: 0000 0000 0000 0000 0000 0000 0000 0000
00000300: 0000 0000 0000 0000 0000 0000 0000 0000
00000310: 0000 0000 0000 0000 0000 0000 0000 0000
00000320: 0000 0000 0000 0000 0000 0000 0000 0000
00000330: 0000 0000 0000 0000 0000 0000 0000 0000
00000340: 0000 0000 0000 0000 0000 0000 0000 0000
00000350: 0000 0000 0000 0000 0000 0000 0000 0000
00000360: 0000 0000 0000 0000 0000 0000 0000 0000
00000370: 0000 0000 0000 0000 0000 0000 0000 0000
00000380: 0000 0000 0000 0000 0000 0000 0000 0000
00000390: 0000 0000 0000 0000 0000 0000 0000 0000
000003a0: 0000 0000 0000 0000 0000 0000 0000 0000
000003b0: 0000 0000 0000 0000 0000 0000 0000 0000
000003c0: 0000 0000 0000 0000 0000 0000 0000 0000
000003d0: 0000 0000 0000 0000 0000 0000 0000 0000
000003e0: 0000 0000 0000 0000 0000 0000 0000 0000
000003f0: 0000 0000 0000 0000 0000 0000 0000 0000
